freeCodeCamp_org/chapter_03_computer_vision/tiny_vgg_v002.pth (torch, 998034 bytes, 12 tensors)

conv_block_1.0.weight f4 [10, 1, 3, 3]
0.28906974 -0.2733036 0.59356624 -0.107054524 -1.2810825 1.0178908 -0.38868847 -0.5965496
0.7620976 -0.115623266 0.8594382 -0.35620594 -0.69486195 1.7459217 -0.82270885 0.106953114
0.39196342 0.21416503 -0.71115637 1.0040376 0.087498456 -1.3639994 0.4238561 0.69052374
-1.2528533 0.38165423 0.4833215 -0.69744205 1.3403358 -0.25694168 -1.329836 0.7618505
0.31117633 -1.0215932 0.055483654 0.6714575 -0.3827001 0.90451235 0.4954462 -1.3829733
0.58168864 0.97419727 -1.1994486 0.05286026 0.9086436 0.875644 -0.9223254 0.17111322
-1.7217375 -3.269428 -0.6639665 0.74644065 -1.4445152 0.54763794 0.18189396 0.86483073
-0.91988283 0.13961653 0.08950857 -0.72161305 -0.07605056 -0.6455697 1.2508999 0.35230958
0.23634629 -0.6775639 -0.13953198 -0.9158209 -2.7323954 0.27875915 0.38680676 -0.44260204
0.030048763 -1.6280298 -1.888667 -0.12352818 -0.7350297 -1.689256 0.30575806 0.28352097
0.086908385 -0.48342422 0.8762156 0.7704338 0.5254536 -0.084101774 -0.47270423 0.46632564
-0.8263492 -0.8105194
00000000: f300 943e 73ee 8bbe f5f3 173f 673f dbbd
00000010: 83fa a3bf 3f4a 823f 2d02 c7be 79b7 18bf
00000020: d418 433f e4cb ecbd 2404 5c3f a060 b6be
00000030: 79e2 31bf 5d7a df3f 0c9d 52bf 3c0a db3d
00000040: 6eaf c83e 144e 5b3e 580e 36bf 4e84 803f
00000050: 6432 b33d 8897 aebf ab03 d93e 2ac6 303f
00000060: 7f5d a0bf 2f68 c33e ea75 f73e 908b 32bf
00000070: 2090 ab3f dc8d 83be 1138 aabf a208 433f
00000080: 8152 9f3e 91c3 82bf d442 633d a4e4 2b3f
00000090: 44f1 c3be 1f8e 673f 20ab fd3e 4505 b1bf
000000a0: 8ce9 143f fe64 793f 8887 99bf 0084 583d
000000b0: de9c 683f 352a 603f 841d 6cbf 4e38 2f3e
000000c0: e561 dcbf 4f3e 51c0 b5f9 29bf bc16 3f3f
000000d0: e0e5 b8bf 0032 0c3f 6942 3a3e 8c65 5d3f
000000e0: 717d 6bbf a3f7 0e3e 4550 b73d a2bb 38bf
000000f0: 65c0 9bbd 0e44 25bf 7d1d a03f ec61 b43e
00000100: c304 723e d474 2dbf 79e1 0ebe 3d73 6abf
00000110: 91df 2ec0 85b9 8e3e 890b c63e bc9c e2be
00000120: d328 f63c 4863 d0bf d7bf f1bf 58fc fcbd
00000130: e82a 3cbf 8a39 d8bf 528c 9c3e a929 913e
00000140: 06fd b13d 6183 f7be aa4f 603f 263b 453f
00000150: 2184 063f 8d3d acbd 4a06 f2be 3cc2 ee3e
00000160: 9f8b 53bf 337e 4fbf

conv_block_1.0.bias f4 [10]
0.021820832 -0.9508496 -0.12471353 0.10185589 -0.44299993 -5.0579357 -0.3680766 -3.3742836
-4.869521 -0.8479513
00000000: 9ac1 b23c e16a 73bf cf69 ffbd d299 d03d
00000010: e3d0 e2be 9cda a1c0 8974 bcbe 43f4 57c0
00000020: 1ed3 9bc0 5613 59bf

conv_block_1.3.weight f4 [10, 10, 3, 3]
0.03532816 0.108208306 0.061980687 -0.02119836 -0.08264478 -0.05257115 -0.18216145 -0.099581875
-0.2552123 -0.04642613 -0.40850437 -0.2814259 0.058259342 -0.4084632 -0.30709228 0.026121126
-0.38937962 -0.28700143 -0.05262032 -0.02852171 -0.10292418 -0.13011222 -0.1174656 -0.027731521
-0.07185179 -0.11215392 -0.26248175 -0.0304934 -0.015347884 0.01154485 -0.03366977 -0.15760541
-0.16048005 -0.020678865 -0.13356481 -0.1112504 -0.31338754 -0.13360476 -0.14107147 -0.5299784
-0.22764622 -0.46436733 -0.31551954 -0.37025356 -0.6627948 -0.0831698 0.24274419 0.021790538
0.03811311 0.050030015 0.21278135 -0.050740413 0.028132012 -0.008735885 -0.0794124 -0.14731881
-0.043818988 -0.007612368 -0.062115952 -0.22388202 0.015102122 -0.07139613 0.07492891 0.08541297
0.026472878 0.057456847 0.1283098 0.012556476 0.072468445 0.043987177 -0.034349833 0.12319848
-0.062177815 -0.06069382 0.08076835 0.021864498 0.06816372 0.103003524 0.057779565 0.16152988
0.11562718 0.1754163 -0.06521278 0.15131441 -0.11240753 0.18573795 -0.016269006 -0.49501386
-0.23690568 -0.45560673 -0.016282074 0.034810096 0.04645527 -0.077759184 -0.01550058 -0.022592913
0.036741223 0.008371246 0.05471442 -0.10413491 -0.0040492904 0.13542502 -0.011505564 -0.11635154
0.1628201 0.011755695 -0.13174585 0.12742203 -0.15522076 -0.00013919164 -0.03236013 -0.17914745
0.078826524 0.065601 -0.08338035 -0.0020352276 0.10022941 -0.08526776 0.063053645 0.3069827
-0.24388728 0.06900312 0.16114646 -0.035370365 -0.15106285 -0.011024463 -0.13303082 0.03957316
0.096654646 -0.37769684 0.05582837 0.06246384 -0.2259513 -0.05521633 0.17091626 0.04433152
0.07259854 -0.22481455 0.32852 0.17350312 -0.58273447 -0.1209976 -0.085608505 -0.5305346
-0.08997507 0.091194145 -0.1473539 -0.06437293 0.11244242 -0.25870138 0.113193266 -0.19342652
-0.18313414 0.17687511 -0.36647058 -0.70316297 0.26283172 -0.3647419 -0.58341104 0.11016176
-0.34300283 -0.42947608 -0.06916053 -0.19404407 -0.6613616 0.20962405 -0.17928779 -0.6020699
0.25546095 -0.1815531 -0.5258345 0.108597815 -0.10637887 -0.45523614 -0.045171354 -0.43396512
-0.5241138 -0.18264756 -0.5807242 -0.12842062 -0.22658968 -0.18087623 -0.26506424 -0.13468303
-0.07697261 -0.1910902 -0.026908895 0.037456993 -0.052406993 -0.3570352 -0.8622085 -0.531789
-0.48578176 -0.65190566 -0.45884493 -0.25731483 -0.22395308 -0.100506864 -0.23355155 -0.25930098
-0.24317625 -0.13676621 -0.17463441 -0.16826805 -0.045189284 0.064588696 -0.00659075 -0.20956461
-0.12914173 -0.15266432 -0.06674225 -0.13165723 -0.14932568 -0.055142693 0.09673273 -0.031602263
-0.69443387 -0.76836413 -0.96288043 -0.24651287 -0.45835376 -0.5203446 -0.0765908 -0.0009101474
-0.11758005 0.0015735809 0.08178363 -0.01835521 -0.71418715 -0.93143153 -0.87725246 0.032203875
0.14839225 0.1109632 0.069551945 0.07296589 -0.047552854 -0.05444509 -0.10303977 -0.04334166
0.019943122 0.010992018 -0.027902318 0.27806744 0.11465161 0.0094389515 -0.7762406 -0.8024958
-0.43678486 0.19745377 -0.04837187 0.007338986 0.24032669 0.2833959 0.11643525 -0.5851066
00000000: 43b4 103d 519c dd3d 76df 7d3d 2fa8 adbc
00000010: ab41 a9bd d954 57bd 8888 3abe 95f1 cbbd
00000020: 30ab 82be 5329 3ebd 7c27 d1be 0e17 90be
00000030: 59a1 6e3d 1722 d1be 333b 9dbe f9fb d53c
00000040: c45c c7be daf1 92be 6888 57bd 5ca6 e9bc
00000050: eac9 d2bd 233c 05be ce91 f0bd 372d e3bc
00000060: 0827 93bd f4b0 e5bd 0264 86be 4bcd f9bc
00000070: b175 7bbc 9c26 3d3c 50e9 09bd 5063 21be
00000080: e254 24be b966 a9bc 37c5 08be 40d7 e3bd
00000090: 5574 a0be b0cf 08be 0a75 10be aaac 07bf
000000a0: 171c 69be 8ec1 edbe c78b a1be e091 bdbe
000000b0: ecac 29bf ee54 aabd ef91 783e 1282 b23c
000000c0: 7e1c 1c3d 46ec 4c3d 5be3 593e 2ed5 4fbd
000000d0: 1b75 e63c f520 0fbc f8a2 a2bd beda 16be
000000e0: 8a7b 33bd 2c71 f9bb 4c6d 7ebd 5441 65be
000000f0: e46e 773c 2238 92bd 5474 993d ffec ae3d
00000100: a6dd d83c df57 6b3d a563 033e adb9 4d3c
00000110: 566a 943d e62b 343d 69b2 0cbd 7c4f fc3d
00000120: 2aae 7ebd 159a 78bd e069 a53d 2d1d b33c
00000130: 6c99 8b3d 83f3 d23d 44aa 6c3d 1768 253e
00000140: f1cd ec3d 55a0 333e 478e 85bd 2af2 1a3e
00000150: eb35 e6bd 1732 3e3e 9446 85bc 7572 fdbe
00000160: 6797 72be 4945 e9be fc61 85bc 0895 0e3d
00000170: e247 3e3d 3540 9fbd 25f6 7dbc c614 b9bc
00000180: f77d 163d 8d27 093c 3a1c 603d af44 d5bd
00000190: e9af 84bb dbac 0a3e d581 3cbc b749 eebd
000001a0: 50ba 263e f59a 403c 62e8 06be ec7a 023e
000001b0: 31f2 1ebe f9f3 11b9 0e8c 04bd 6e72 37be
000001c0: cd6f a13d d159 863d 51c3 aabd 7461 05bb
000001d0: 1445 cd3d dda0 aebd 4522 813d d62c 9d3e
000001e0: 96bd 79be 8251 8d3d 9403 253e 84e0 10bd
000001f0: 38b0 1abe f39f 34bc 3b39 08be 7717 223d
00000200: dff2 c53d 7b61 c1be 4aac 643d 15da 7f3d
00000210: c75f 67be 852a 62bd ac04 2f3e f894 353d
00000220: 8bae 943d c935 66be c633 a83e cdaa 313e
00000230: 162e 15bf 97cd f7bd 8353 afbd 1ed1 07bf
00000240: d944 b8bd ffc3 ba3d f1e3 16be f4d5 83bd
00000250: 3648 e63d 8274 84be dfd1 e73d 9a11 46be
00000260: 8487 3bbe c01e 353e 08a2 bbbe 7d02 34bf
00000270: e191 863e 73bf babe 6d5a 15bf 7d9c e13d
00000280: 119e afbe 4ae4 dbbe 09a4 8dbd 7db3 46be
00000290: fe4e 29bf b0a7 563e 3897 37be 4121 1abf
000002a0: c7cb 823e 0ee9 39be 179d 06bf 8868 de3d
000002b0: 2add d9bd b614 e9be 9905 39bd ad30 debe
000002c0: 522c 06bf f607 3bbe 57aa 14bf b280 03be
000002d0: 2007 68be 9e37 39be 80b6 87be 59ea 09be
000002e0: d1a3 9dbd 26ad 43be 0b70 dcbc 816c 193d
000002f0: b7a8 56bd 51cd b6be b2b9 5cbf 5323 08bf
00000300: 63b8 f8be 4ae3 26bf b9ed eabe c5be 83be
00000310: f553 65be 8bd6 cdbd 2328 6fbe 19c3 84be
00000320: 3203 79be 710c 0cbe 5dd3 32be 764e 2cbe
00000330: 6618 39bd 1447 843d 38f7 d7bb 1b98 56be
00000340: bb3d 04be 0954 1cbe 29b0 88bd 27d1 06be
00000350: d5e8 18be 4edd 61bd cf1b c63d 6071 01bd
00000360: 6bc6 31bf 83b3 44bf 557f 76bf df6d 7cbe
00000370: 58ad eabe 4e35 05bf a3db 9cbd f596 6eba
00000380: cfcd f0bd 9d40 ce3a 2d7e a73d aa5d 96bc
00000390: f8d4 36bf 4c72 6ebf 9e93 60bf 36e8 033d
000003a0: 23f4 173e ad40 e33d 4071 8e3d 246f 953d
000003b0: c8c6 42bd d101 5fbd 8406 d3bd 0687 31bd
000003c0: c25f a33c dd17 343c 6793 e4bc db5e 8e3e
000003d0: 77ce ea3d d5a5 1a3c b4b7 46bf 5d70 4dbf
000003e0: 44a2 dfbe 5231 4a3e 9521 46bd e07b f03b
000003f0: 3318 763e 4419 913e 9b75 ee3d 8cc9 15bf

conv_block_1.3.bias f4 [10]
0.254305 -0.08789969 0.83307874 0.3150824 1.2668478 0.43802047 -0.01152882 0.5041577
-0.0018212977 1.0241854
00000000: 4434 823e c104 b4bd a644 553f 7b52 a13e
00000010: 1228 a23f 3844 e03e 60e3 3cbc 7b10 013f
00000020: 9cb8 eeba 8218 833f

conv_block_2.0.weight f4 [10, 10, 3, 3]
0.44611016 -0.04809946 -0.42648908 -0.14714946 -0.8693831 -0.23482293 -1.0492749 -0.30674556
-0.09400566 0.043125484 -0.001325927 -0.36950696 0.030610086 0.10205064 -0.37577808 -0.020596962
-0.20959641 -0.1389575 -0.084414385 -0.49251616 -0.25822935 0.4087686 -0.34991845 -0.10988157
0.12261625 0.0036807037 -0.050541434 -0.70229125 -0.072059356 0.018611964 -0.69270426 -0.030464673
0.101258285 -0.17367417 -0.24646296 -0.14348768 -0.4693121 -0.6732715 0.052133664 -0.1708179
-0.038124684 0.37933645 0.6118836 0.19545408 -0.07559105 -0.110622145 -0.14136836 0.10175036
-0.08424709 -0.14070249 0.21066019 -0.067934014 0.17479558 -0.074331276 -0.0011740262 0.006996203
-0.010855268 -0.35364875 0.019353947 0.005390728 -0.0652656 -0.04121736 0.052373953 -0.014545622
-0.077427514 0.11825973 -0.34460628 0.069273815 0.16289319 -0.056120705 0.081337266 0.04453479
0.11687799 -0.14181808 -0.116319545 0.11079757 -0.1498083 -0.07822478 -0.1518721 -0.36024982
0.0653025 -0.13983393 -0.028909892 0.5470523 -0.19708811 -0.11744932 0.30792993 -0.10195417
-0.06484074 -0.011979383 -1.1116996 -0.29911038 -0.12787141 -0.19794002 0.31794813 -0.16146976
0.031766195 0.2756672 -0.34038508 0.049488455 -0.10593692 -0.05500141 -0.08311624 0.06993551
0.29096794 -0.2648352 0.10414639 0.014783054 -0.04823567 0.32223383 0.3111262 0.43698308
-0.07854459 -0.5467135 -0.008568358 -0.29812434 -0.46940735 0.094889395 0.055102892 -0.06625468
-0.07710846 -0.024880258 0.033146765 0.17239843 0.04593504 0.07494652 -0.015840892 0.32133406
0.08600171 0.5526286 -0.11281384 -0.41490442 0.22787566 -0.2401807 -0.16819628 -0.28455764
-0.10783991 -0.71993256 0.09706371 -0.09489142 -0.48607594 0.28398946 -0.068305664 -0.36714545
-0.007459472 -0.048316326 0.017120428 -0.16876237 -0.31374827 0.069691055 -0.14559303 -0.2668195
-0.022655785 0.13814195 0.44203112 -0.47471517 0.57671595 0.43021628 -0.44852063 0.16740794
0.2930377 -0.6026818 -0.13667464 -0.26412895 -0.14629507 -0.2043245 -0.4921083 -0.21111505
0.056945983 -0.3086841 -0.26369575 0.07376261 -0.08684027 0.07141133 0.11442488 -0.19589832
-0.3631606 0.21681203 -0.05490266 -0.12104063 -0.12131996 0.059797257 0.012438942 -0.54645133
-0.08831585 0.22482365 -0.29445386 0.14741021 -0.00026717674 -0.1634475 -0.5368306 -0.3106409
-0.015319469 -0.8316478 -0.3346266 0.22927108 -0.45206198 -0.20766176 -0.18088372 0.0734684
0.041221473 0.17547224 0.38050696 0.43276778 -0.33301404 -0.08748771 0.05126324 -0.07437251
-0.1637764 -0.66207486 0.0222448 0.14224403 -0.8698631 -0.002881024 0.116564974 -0.65168303
-0.10985381 0.094481565 -0.25267726 0.34908184 0.25302714 0.2471983 -0.3334131 -0.18729013
0.046173062 -0.031691536 0.12802461 -0.06597259 -0.0010432249 0.24288224 0.2299817 0.20296723
-0.19402878 0.15584221 -0.10497949 -0.1470257 -0.30157304 -0.024893463 -0.3684943 -0.52554387
-0.08191179 -0.049299676 -0.5156042 -0.33080393 0.014988075 -0.016762482 0.007915134 0.47755504
0.3354202 0.061324324 0.08377671 -0.14890397 -0.084109984 0.024645466 0.00070981204 -0.1572434
00000000: 8d68 e43e f003 45bd c75c dabe 59ae 16be
00000010: e48f 5ebf 6c75 70be a44e 86bf c10d 9dbe
00000020: 0a86 c0bd 59a4 303d baca adba 0430 bdbe
00000030: 01c2 fa3c edff d03d fc65 c0be f6ba a8bc
00000040: 71a0 56be e04a 0ebe 73e1 acbd 142b fcbe
00000050: a336 84be 1e4a d13e 8328 b3be 9709 e1bd
00000060: 3a1e fb3d f637 713b 8904 4fbd 5cc9 33bf
00000070: db93 93bd 1e78 983c 1155 31bf 0d91 f9bc
00000080: 8160 cf3d a4d7 31be c960 7cbe 6fee 12be
00000090: ad49 f0be 855b 2cbf 1c8a 553d e3ea 2ebe
000000a0: a128 1cbd 6338 c23e 67a4 1c3f 1d25 483e
000000b0: 7bcf 9abd dd8d e2bd dec2 10be 7e62 d03d
000000c0: bd89 acbd 5014 10be 4eb7 573e fd20 8bbd
000000d0: 9dfd 323e ff3a 98bd c8e1 99ba 6840 e53b
000000e0: 4bda 31bc 7311 b5be 2b8c 9e3c b4a4 b03b
000000f0: f9a9 85bd 89d3 28bd 1286 563d c350 6ebc
00000100: 5192 9ebd 2832 f23d 3c70 b0be 6edf 8d3d
00000110: 79cd 263e d3de 65bd 2794 a63d 1d6a 363d
00000120: ba5d ef3d c238 11be f138 eebd d6e9 e23d
00000130: 5967 19be 5034 a0bd 5c84 1bbe aa72 b8be
00000140: 51bd 853d a030 0fbe 70d4 ecbc 9f0b 0c3f
00000150: 77d1 49be 4589 f0bd fea8 9d3e 59cd d0bd
00000160: 39cb 84bd 2d45 44bc 2c4c 8ebf ff24 99be
00000170: b9f0 02be cab0 4abe 19ca a23e 5458 25be
00000180: 451d 023d 4024 8d3e f446 aebe 68b4 4a3d
00000190: 75f5 d8bd 2949 61bd d938 aabd 593a 8f3d
000001a0: c0f9 943e 7b98 87be b44a d53d 9f34 723c
000001b0: c492 45bd d5fb a43e ef4b 9f3e 3fbc df3e
000001c0: fcdb a0bd 6af5 0bbf 4c62 0cbc c1a3 98be
000001d0: 2956 f0be 5f55 c23d 92b3 613d 89b0 87bd
000001e0: 0aeb 9dbd afd1 cbbc e7c4 073d 3789 303e
000001f0: 6126 3c3d 907d 993d c2c4 81bc e685 a43e
00000200: aa21 b03d 1179 0d3f f10a e7bd 5a6e d4be
00000210: 3d58 693e eef1 75be a53b 2cbe 8ab1 91be
00000220: 2cdb dcbd 804d 38bf 57c9 c63d 6f56 c2bd
00000230: f2de f8be 1167 913e d7e3 8bbd 7dfa bbbe
00000240: 966e f4bb 57e7 45bd 2440 8c3c 0bd0 2cbe
00000250: 9da3 a0be 2fba 8e3d 5716 15be 919c 88be
00000260: a098 b9bc 1575 0d3e e751 e23e de0d f3be
00000270: a8a3 133f 4f45 dc3e 7fa4 e5be fd6c 2b3e
00000280: 0a09 963e 5b49 1abf 70f4 0bbe e93b 87be
00000290: 60ce 15be 713a 51be 9ef5 fbbe 8b2e 58be
000002a0: 3140 693d d80b 9ebe 2103 87be da10 973d
000002b0: 50d9 b1bd 1a40 923d 9757 ea3d 9299 48be
000002c0: 30f0 b9be f903 5e3e 9de1 60bd 26e4 f7bd
000002d0: 9976 f8bd f8ed 743d b4cc 4b3c 3ce4 0bbf
000002e0: f1de b4bd 2c38 663e a8c2 96be b4f2 163e
000002f0: db13 8cb9 c85e 27be bb6d 09bf 530c 9fbe
00000300: 83fe 7abc dfe6 54bf 2d54 abbe 0ac6 6a3e
00000310: ab74 e7be 49a5 54be 9539 39be 9a76 963d
00000320: d9d7 283d ffae 333e cfd1 c23e bd93 dd3e
00000330: d180 aabe c22c b3bd 67f9 513d 9d50 98bd
00000340: 00b5 27be bd7d 29bf ba3a b63c 6ba8 113e
00000350: 59af 5ebf 90cf 3cbb 9eb9 ee3d b3d4 26bf
00000360: 09fb e0bd 8d7f c13d ea5e 81be dbba b23e
00000370: c68c 813e 8d21 7d3e 1fb5 aabe fcc8 3fbe
00000380: f71f 3d3d fcce 01bd e218 033e a31c 87bd
00000390: d2bc 88ba 1fb6 783e 5380 6b3e a4d6 4f3e
000003a0: 7baf 46be 1a95 1f3e 7dff d6bd e88d 16be
000003b0: c867 9abe 60ed cbbc 49ab bcbe 0b8a 06bf
000003c0: 5ec1 a7bd 75ee 49bd a3fe 03bf 225f a9be
000003d0: 8b90 753c 7951 89bc 7aae 013c 1882 f43e
000003e0: 32bc ab3e 372f 7b3d 2093 ab3d 487a 18be
000003f0: db41 acbd 4ae5 c93c ae12 3a3a 6a04 21be

conv_block_2.0.bias f4 [10]
0.9927047 -0.060683105 0.32568213 0.46428704 0.15156356 0.47270477 0.8083889 0.57661116
0.5121365 0.217021
00000000: e521 7e3f d98e 78bd cfbf a63e 08b7 ed3e
00000010: 7a33 1b3e 5c06 f23e 93f2 4e3f ca9c 133f
00000020: 611b 033f c13a 5e3e

conv_block_2.3.weight f4 [10, 10, 3, 3]
0.14673752 -0.06929208 -0.25965884 0.035716005 -0.16294442 -0.433337 0.031065602 -0.18218611
-0.31531838 -0.115136474 0.18217173 0.027159503 0.027081484 0.14162503 0.079786345 -0.0065847407
0.016477583 0.020819535 -0.2826086 0.100354694 -0.0407378 -0.24859151 0.09506885 -0.07246526
-0.23705068 -0.010900389 -0.03953647 -0.08309653 -0.14337355 -0.25029227 -0.15798064 -0.22676447
-0.23360161 -0.09242865 -0.15403003 -0.07034471 -0.33591467 -0.056328334 -0.19512102 -0.39336666
-0.06792603 -0.2046358 -0.13904944 0.043835144 -0.03611635 -0.18103512 -0.42562464 -0.096841685
-0.117035404 -0.39817223 -0.13199006 -0.09049373 -0.23391005 -0.07405945 -0.44488272 -0.29006052
0.017669355 -0.669321 -0.52305526 0.07839821 -0.62200075 -0.5198784 0.07944781 0.08025091
0.08990955 -0.06701263 0.06987663 0.15436435 -0.01456013 0.10810396 0.023893962 0.013631631
-0.13316388 -0.84006745 -0.13067298 -0.28961924 -0.91834533 -0.11630534 -0.18248186 -0.562417
-0.052282415 -0.3299159 -0.048710335 -0.112490445 -0.39909327 -0.018893452 -0.1825046 -0.20532691
0.065864354 -0.02852472 0.11730508 -0.12327131 -0.10659942 -0.013646684 -0.2104453 -0.029820343
-0.09611944 -0.059253894 -0.027185714 0.15927808 0.14079633 0.07449248 0.27767745 0.20555377
0.11019353 0.10630254 0.106065474 -0.0009686018 0.09111187 0.13150613 0.036985174 0.12591621
0.06452095 0.02968101 0.050910607 0.0296952 -0.059303284 -0.009359999 0.12506832 0.10358596
0.04863826 -0.05159929 -0.084756024 0.055550482 -0.063997045 0.008090181 -0.07806337 0.026307806
0.2206797 -0.23719488 -0.16404442 -0.059787836 -0.16920812 -0.16274339 -0.124379665 0.092378944
0.14321098 0.027489405 0.038857073 0.15340278 0.04065577 0.012485623 0.033796493 0.008120348
-0.070375964 -0.12168992 0.06982906 -0.049661543 -0.17767613 -0.16798161 -0.018604053 -0.03503274
-0.0036075416 0.017594544 -0.049998432 -0.15745816 -0.0020250445 -0.2337088 -0.3421989 -0.040271547
-0.46221405 -0.2847502 -0.14082097 -0.051746216 0.062864274 0.030107738 0.17270754 0.025238387
0.04374027 0.12853353 0.059412055 -0.12013791 -0.0052503403 0.07651372 0.09806419 0.08082245
-0.038325213 0.1499651 0.10343148 -0.059152935 0.07353543 0.1302621 0.061191034 0.010002016
0.05456952 0.037496116 0.08249567 0.026498703 -0.07383722 -0.2634163 -0.4835082 -0.08028374
-0.22133115 -0.27782214 -0.15278794 0.028247787 0.031603485 -0.012567402 0.054564405 0.092866585
0.07051801 -0.009057229 0.12350377 0.20171064 -0.08415764 -0.012820756 0.15955037 0.042951107
-0.0070878603 -0.16548969 -0.026471121 -0.1853108 -0.4407875 0.0033831543 -0.15591216 -0.34298494
-0.2096231 -0.3036058 -0.16031678 -0.4891588 -0.7978602 -0.6411273 -0.37631708 -0.6752306
-0.65928483 -0.02282472 0.06681811 -0.031763762 0.022988498 0.15525046 0.07421213 0.054293524
0.11366515 0.122972995 0.03376588 0.05790909 0.049360283 0.02534979 0.032429278 0.040608373
-0.060437493 0.031375743 -0.026532164 -0.049083095 -0.023471842 0.082736105 -0.068662986 0.103841126
0.06461564 -0.012344106 0.04089153 0.19329165 -0.22448958 -0.52114993 -0.4315801 -0.288056
00000000: 5c42 163e 02e9 8dbd 01f2 84be f24a 123d
00000010: e7da 26be 59de ddbe 4a7d fe3c ff8e 3abe
00000020: 6971 a1be accc ebbd 3a8b 3a3e 9b7d de3c
00000030: fdd9 dd3c 2706 113e 0667 a33d cfc4 d7bb
00000040: fffb 863c bb8d aa3c 13b2 90be c386 cd3d
00000050: aedc 26bd c68e 7ebe 75b3 c23d ab68 94bd
00000060: 6abd 72be 8c97 32bc fef0 21bd 832e aabd
00000070: 84d0 12be 4f26 80be adc5 21be f234 68be
00000080: 4335 6fbe 3b4b bdbd 0cba 1dbe e310 90bd
00000090: 02fd abbe 8ab8 66bd cecd 47be 5b67 c9be
000000a0: cd1c 8bbd 0c8c 51be fa62 0ebe 7b8c 333d
000000b0: bdee 13bd 4561 39be 79eb d9be ef54 c6bd
000000c0: 42b0 efbd 3bdd cbbe 6728 07be c754 b9bd
000000d0: 1e86 6fbe 7bac 97bd abc7 e3be d082 94be
000000e0: 53bf 903c 9f58 2bbf f3e6 05bf 3e8f a03d
000000f0: 713b 1fbf c016 05bf 89b5 a23d 975a a43d
00000100: 8022 b83d eb3d 89bd 7b1b 8f3d b011 1e3e
00000110: 9d8d 6ebc 9c65 dd3d 45bd c33c 3457 5f3c
00000120: 1d5c 08be a90e 57bf 23cf 05be f948 94be
00000130: ae18 6bbf 7e31 eebd 86dc 3abe 8ffa 0fbf
00000140: 1626 56bd bdea a8be 7d84 47bd 6461 e6bd
00000150: f455 ccbe 71c6 9abc 7ce2 3abe 3841 52be
00000160: e4e3 863d acac e9bc a53d f03d ab75 fcbd
00000170: cc50 dabd 5796 5fbc f97e 57be cb49 f4bc
00000180: 45da c4bd 36b4 72bd 93b4 debc cb19 233e
00000190: ea2c 103e 838f 983d bd2b 8e3e b07c 523e
000001a0: 25ad e13d 25b5 d93d db38 d93d c4e9 7dba
000001b0: dc98 ba3d 8ba9 063e c47d 173d 2ef0 003e
000001c0: 8f23 843d 9725 f33c a487 503d 5943 f33c
000001d0: 00e8 72bd ae5a 19bc e911 003e e024 d43d
000001e0: ea38 473d c759 53bd 9194 adbd e788 633d
000001f0: e210 83bd ae8c 043c b0df 9fbd 7883 d73c
00000200: dcf9 613e 37e3 72be 43fb 27be 17e4 74bd
00000210: e544 2dbe 34a6 26be c4ba febd 2c31 bd3d
00000220: e6a5 123e 7631 e13c 9828 1f3d 9e15 1d3e
00000230: aa86 263d 8090 4c3c 316e 0a3d 350b 053c
00000240: 4621 90bd 9138 f9bd 8a02 8f3d e769 4bbd
00000250: bbf0 35be 5f03 2cbe 8767 98bc 7e7e 0fbd
00000260: 816c 6cbb 6f22 903c 28cb 4cbd b63c 21be
00000270: 9cb6 04bb 5c51 6fbe b234 afbe c7f3 24bd
00000280: 52a7 ecbe c7ca 91be 5f33 10be d7f3 53bd
00000290: fcbe 803d 81a4 f63c 3fda 303e bcc0 ce3c
000002a0: ff28 333d 4b9e 033e 0e5a 733d dd0a f6bd
000002b0: 0c0b acbb 3ab3 9c3d e1d5 c83d 3e86 a53d
000002c0: e6fa 1cbd 7490 193e e2d3 d33d 594a 72bd
000002d0: be99 963d 6e63 053e 73a3 7a3d 7fdf 233c
000002e0: 4a84 5f3d 8795 193d 7df3 a83d cf13 d93c
000002f0: f837 97bd 80de 86be 638e f7be cd6b a4bd
00000300: a2a4 62be b43e 8ebe 7174 1cbe e767 e73c
00000310: a872 013d 81e7 4dbc ed7e 5f3d d630 be3d
00000320: bf6b 903d c664 14bc 8bef fc3d 3c8d 4e3e
00000330: d75a acbd 260e 52bc 2c61 233e 80ed 2f3d
00000340: 4841 e8bb 2176 29be f7d9 d8bc 1dc2 3dbe
00000350: e6ae e1be e9b7 5d3b 70a7 1fbe b99b afbe
00000360: 70a7 56be 3872 9bbe 152a 24be 0673 fabe
00000370: 9140 4cbf eb20 24bf a2ac c0be eadb 2cbf
00000380: e4c6 28bf e8fa babc efd7 883d b81a 02bd
00000390: 6052 bc3c faf9 1e3e 87fc 973d e362 5e3d
000003a0: 46c9 e83d 44d9 fb3d 174e 0a3d 1532 6d3d
000003b0: 022e 4a3d 5daa cf3c 90d4 043d f754 263d
000003c0: 4e8d 77bd da83 003d fb59 d9bc 5b0b 49bd
000003d0: 0548 c0bc 8c71 a93d 2e9f 8cbd a8aa d43d
000003e0: 3455 843d ef3e 4abc e17d 273d 3fee 453e
000003f0: 99e0 65be 156a 05bf 11f8 dcbe 137c 93be

conv_block_2.3.bias f4 [10]
1.7986244 -0.42929614 0.78616536 0.34024042 -1.0052938 1.2925507 -0.024333397 0.33045617
0.7934129 1.7495009
00000000: 5339 e63f b4cc dbbe 2242 493f fe33 ae3e
00000010: 78ad 80bf 4d72 a53f d556 c7bc 8d31 a93e
00000020: 1c1d 4b3f a5ef df3f

classifier.1.weight f4 [490, 490]
-0.050788864 -0.024144704 -0.045591846 -0.01283728 -0.11899445 -0.010322453 0.02792079 -0.033232275
-0.07524032 0.022616018 0.1591782 0.021434095 0.028023854 0.011043868 0.052034296 -0.051777553
0.073806696 0.062563084 -0.040356383 -0.06013555 -0.19581303 0.062316604 0.055759437 0.09604682
-0.11131948 0.048367027 -0.134317 -0.24052714 -0.059039347 -0.030315433 0.09503985 -0.2013514
-0.026778352 -0.18042877 -0.007410888 -0.013496718 -0.037721973 -0.10076962 0.002210111 0.13180947
-0.10083736 0.0464213 0.0010436896 -0.0055189296 -0.06504742 0.052614704 0.012099268 -0.067262754
-0.15705575 0.035335533 0.0004845767 -0.028893236 0.031707905 -0.030303737 -0.101441145 -0.024951495
0.00041118532 -0.06604265 -0.05315825 -0.08641798 -0.106151305 -0.041113403 0.0047074254 0.0115707135
-0.028844219 -0.018173622 0.0031028518 0.087853484 0.058921732 -0.022810638 0.043121886 -0.07386605
-0.111146756 -0.028640766 -0.049211003 -0.0066741165 -0.029809758 0.009607661 0.044877402 -0.09577852
-0.064441815 0.052987777 0.16200757 -0.021761395 -0.03751979 -0.0674326 -0.24951808 -0.16516237
0.12762134 -0.11037725 -0.09633667 0.075822964 0.0017039463 0.021210967 -0.057022605 -0.014451078
-0.14231087 0.18259396 0.034300063 0.018446447 0.08480397 0.10401539 0.15043148 0.010420236
-0.019509196 0.017150119 -0.047892235 0.05134171 0.15284494 0.03364635 0.01514764 0.07065099
-0.036956612 -0.020068986 -0.048935227 -0.0071919835 0.03460305 0.08106072 -0.008411795 0.05393616
0.18727314 0.0023390597 0.01813714 0.08989729 -0.13527362 -0.087906994 -0.16070163 0.070169345
0.04257897 0.04266963 0.037658196 -0.1679324 -0.0467914 -0.08673926 0.025893228 -0.040903546
-0.09835529 -0.17897578 -0.11108083 0.111248784 0.05403333 0.039453994 -0.17558683 -0.302163
-0.05811474 -0.013768389 0.016389018 0.021580473 0.09234438 0.042457115 -0.010801973 0.09767345
-0.00045090733 0.059826363 -0.078668036 -0.012717559 -0.041969925 0.12521961 0.04228432 -0.060516562
-0.022014089 -0.18053839 0.014289998 0.09336092 0.1176768 0.01917332 -0.023160594 0.04331317
-0.057906978 0.06145465 0.13918507 0.030968098 -0.07884794 -0.07392341 0.00054923084 -0.08581105
-0.012466722 0.0044321655 -0.12856963 -0.022286136 -0.16047727 -0.052420467 -0.009882588 -0.034013294
0.055884905 -0.13836864 0.09495324 -0.015042168 -0.11474945 -0.0018429831 -0.22189833 -0.10062694
0.06574585 0.051377453 -0.12003668 0.08129773 -0.0036658898 0.013055036 -0.0132097155 -0.033273034
0.060545847 -0.13201708 0.17691016 -0.06385115 0.046151157 -0.058319606 0.047354456 0.013962354
-0.2042726 0.07828272 -0.0176156 0.03337288 -0.07311104 0.0308675 -0.051235106 -0.050076414
0.0006547422 -0.017655592 -0.040159043 0.042363588 8.3952524e-05 0.06720359 0.036463976 0.041389283
0.04213163 -0.07109082 0.036431674 0.005623745 0.029000236 0.05182763 -0.15408023 0.010631032
-0.027851652 0.097040445 -0.07671526 -0.021411516 0.16987586 -0.17776592 0.037077118 -0.13718875
0.045609646 -0.020395422 -0.06446465 0.007953475 -0.060508758 -0.035541557 -0.00037909832 0.025074128
-0.019388035 -0.15051632 0.16171834 0.018840509 0.025599703 -0.04841429 -0.06584442 -0.029572124
00000000: fc07 50bd 1dcb c5bc 84be 3abd 7453 52bc
00000010: 5db3 f3bd 821f 29bc 24ba e43c 911e 08bd
00000020: 9917 9abd 3a45 b93c 9cff 223e 8e96 af3c
00000030: 4892 e53c 57f1 343c ea21 553d b314 54bd
00000040: f727 973d 1321 803d bc4c 25bd b250 76bd
00000050: 3683 48be b23f 7f3d 0264 643d 32b4 c43d
00000060: 78fb e3bd 811c 463d 658a 09be bf4c 76be
00000070: 3ed3 71bd 1258 f8bc 41a4 c23d 102f 4ebe
00000080: 465e dbbc 52c2 38be 09d7 f2bb 5721 5dbc
00000090: 5b82 1abd 4d60 cebd 82d7 103b 10f9 063e
000000a0: d183 cebd 4324 3e3d 69cc 883a 23d8 b4bb
000000b0: 9537 85bd 8482 573d 023c 463c 0ec1 89bd
000000c0: 39d3 20be febb 103d c90e fe39 82b1 ecbc
000000d0: 26e0 013d 8b3f f8bc 60c0 cfbd 1467 ccbc
000000e0: 5c94 d739 5e41 87bd 77bc 59bd e9fb b0bd
000000f0: db65 d9bd 8766 28bd bf40 9a3b 1793 3d3c
00000100: b64a ecbc d9e0 94bc 3759 4b3b 87ec b33d
00000110: ea57 713d 60dd babc 93a0 303d 1547 97bd
00000120: e9a0 e3bd 0aa0 eabc 7a91 49bd 8cb2 dabb
00000130: 9833 f4bc 7369 1d3c 5ed1 373d 8727 c4bd
00000140: 12fa 83bd b609 593d 50e5 253e f444 b2bc
00000150: 5aae 19bd 1a1a 8abd ab81 7fbe 5320 29be
00000160: 2baf 023e 780d e2bd 294c c5bd 1249 9b3d
00000170: f356 df3a 9fc2 ad3c 8990 69bd 37c4 6cbc
00000180: f1b9 11be e9f9 3a3e 397e 0c3d 011d 973c
00000190: b4ad ad3d 0506 d53d b60a 1a3e a3b9 2a3c
000001a0: c0d1 9fbc 687e 8c3c a62a 44bd af4b 523d
000001b0: 6283 1c3e c1d0 093d cf2d 783c 77b1 903d
000001c0: d15f 17bd b767 a4bc 4e70 48bd bbaa ebbb
000001d0: eebb 0d3d 2a03 a63d a0d1 09bc 2aec 5c3d
000001e0: 88c4 3f3e e94a 193b 5794 943c 121c b83d
000001f0: 2b85 0abe 9508 b4bd f88e 24be f2b4 8f3d
00000200: 4967 2e3d 5ac6 2e3d 7b3f 1a3d 79f6 2bbe
00000210: 57a8 3fbd 5aa4 b1bd 091e d43c 7a8a 27bd
00000220: 806e c9bd 6d45 37be 597e e3bd 67d6 e33d
00000230: 0e52 5d3d 839a 213d 09cd 33be 1cb5 9abe
00000240: b909 6ebd cf94 61bc 4342 863c 88c9 b03c
00000250: 0d1f bd3d 83e7 2d3d c2fa 30bc 0509 c83d
00000260: c267 ecb9 7d0c 753d b51c a1bd 4f5d 50bc
00000270: a8e8 2bbd 9239 003e 5332 2d3d 37e0 77bd
00000280: e456 b4bc 0edf 38be 9920 6a3c 0334 bf3d
00000290: 8900 f13d 5e11 9d3c 49bb bdbc 2769 313d
000002a0: de2f 6dbd dfb7 7b3d 8886 0e3e cfb0 fd3c
000002b0: 077b a1bd 2865 97bd 42fa 0f3a b4bd afbd
000002c0: 3941 4cbc b33b 913b c2a7 03be 6a91 b6bc
000002d0: 2754 24be d8b6 56bd 94ea 21bc 8651 0bbd
000002e0: 92e7 643d 82b0 0dbe d876 c23d 6d73 76bc
000002f0: c201 ebbd 4090 f1ba 5139 63be 7f15 cebd
00000300: c3a5 863d 2a71 523d cad5 f5bd 6d7f a63d
00000310: 6d3f 70bb cae4 553c 906d 58bc 4e49 08bd
00000320: ecfe 773d 7c2f 07be f027 353e 64c4 82bd
00000330: ff08 3d3d 8ae0 6ebd bff6 413d 5bc2 643c
00000340: d62c 51be b152 a03d 974e 90bc 00b2 083d
00000350: 3ebb 95bd d7dd fc3c e7db 51bd ed1c 4dbd
00000360: 01a3 2b3a 76a2 90bc cf7d 24bd 7185 2d3d
00000370: ab0f b038 09a2 893d 405b 153d cf87 293d
00000380: 3792 2c3d 1098 91bd 6139 153d 6447 b83b
00000390: e791 ed3c 3549 543d 35c7 1dbe c82d 2e3c
000003a0: 2629 e4bc 24bd c63d e41c 9dbd 3467 afbc
000003b0: f0f3 2d3e 4508 36be 2dde 173d 357b 0cbe
000003c0: 2ed1 3a3d 4d14 a7bc 0b06 84bd 4b4f 023c
000003d0: 08d8 77bd 0694 11bd b7c1 c6b9 4268 cd3c
000003e0: a8d3 9ebc f320 1abe 7e99 253e 6957 9a3c
000003f0: 78b6 d13c 104e 46bd 70d9 86bd 3d41 f2bc

classifier.1.bias f4 [490]
-0.06004094 -0.20059708 0.076472506 -0.04000738 -0.0036152268 0.080677025 0.033369564 0.03704331
-0.09841017 -0.06087697 0.052328967 -0.124144234 -0.033721086 -0.06966688 0.12310194 -0.06950177
0.10456377 0.022888863 0.047619436 -0.08826084 0.16219138 -0.0626344 0.082379475 0.010036166
-0.1361731 -0.014333573 0.078251295 0.09140631 0.019355437 0.14121754 -0.05507325 0.0071926853
-0.01589129 -0.038786165 -0.08021221 -0.0588605 -0.103539735 0.054021694 -0.06766655 -0.042466447
0.061007176 -0.0023049947 -0.029257394 0.060936254 0.01624769 -0.09247052 0.13031176 0.031925157
-0.09082103 0.029026572 0.015231599 -0.052653793 0.021070149 -0.04726895 -0.10064967 -0.013773268
0.019072207 -0.0129356915 0.04792878 0.06708924 0.03565306 -0.05173333 -0.09616283 -0.035497442
-0.09088717 0.26353943 -0.07416847 -0.051403448 -0.08558894 -0.0743597 -0.013421972 -0.109627485
0.12599088 -0.05840146 -0.063465215 -0.055348292 -0.03376508 -0.17210297 0.043106258 0.032613304
-0.122519284 -0.02754176 0.006238095 -0.0561046 -0.06369501 -0.042384148 -0.14027973 -0.14860652
-0.047281448 0.005381747 -0.055998597 0.05359802 -0.09879755 -0.04804997 -0.011511447 0.00713349
0.03866131 0.03789893 -0.055592526 0.050978467 0.17169614 0.041022565 -0.11005728 -0.05628201
0.17483288 0.04597542 0.19491065 0.047499906 0.040479828 -0.09900735 0.07667741 -0.11858452
0.0092471605 -0.07899739 0.00017974013 -0.15503737 -0.018417258 -0.0024809777 -0.1088352 -0.08533237
-0.0061182952 0.091933005 -0.07797176 0.14369635 0.14248143 0.048009757 0.0068636085 0.038807444
-0.023294445 -0.07887359 -0.10746258 -0.056166675 0.0306631 0.06714619 -0.03646802 0.040334895
0.06284475 0.0014874722 -0.02272451 -0.059221044 0.16159903 -0.06546525 0.0040592416 0.05197541
-0.06955538 -0.022135023 0.027164247 -0.056626018 0.043777976 0.006220328 -0.08401775 0.0185823
0.103421174 -0.018080814 0.09107961 0.0142544545 -0.036826454 -0.0009368589 -0.13690431 0.02474524
0.08886653 0.06546486 -0.038511854 -0.12615775 0.02761847 0.122247204 -0.07241692 -0.05618146
-0.06263591 0.12787752 0.060911283 0.03489997 -0.10637097 0.07966865 -0.13260183 -0.13723366
-0.032466296 -0.14439596 0.025278963 0.068466835 0.036605444 -0.0017223618 -0.069332205 -0.06150868
-0.045260333 -0.026211495 0.030583113 0.23118031 -0.009266531 -0.036115564 0.04254957 0.1417807
-0.029607426 0.01590583 0.057354942 -0.033935234 -0.039149806 -0.08413416 0.13321199 0.008171291
0.23275712 -0.027058667 -0.04349434 0.032398045 0.017595626 0.16032837 0.05146791 0.2196081
0.026099354 0.002429405 -0.094792664 -0.08177337 -0.1094517 -0.08828986 0.02317684 0.21567403
-0.08511495 -0.122591734 -0.0060550408 -0.056004643 -0.007581831 0.22899617 -0.026411887 -0.063432984
0.021743936 0.052695353 -0.08146071 -0.006148329 -0.08375919 0.16160752 -0.052701335 -0.11764473
-0.018400008 0.05246 0.03697126 0.061955016 0.1385301 -0.027089445 0.21570037 0.12924427
0.117935866 0.08850777 0.02246963 -0.082846634 -0.104269564 -0.105157115 -0.014194496 0.050268713
-0.029496128 0.1855363 0.18476248 -0.0028867803 -0.02423315 -0.046702527 -0.079342455 0.11155485
00000000: 7ded 75bd 5269 4dbe 9e9d 9c3d c7de 23bd
00000010: 71ed 6cbb ff39 a53d 86ae 083d baba 173d
00000020: 458b c9bd 215a 79bd e656 563d 553f febd
00000030: 1f1f 0abd 82ad 8ebd df1c fc3d f256 8ebd
00000040: 8825 d63d 6d81 bb3c 990c 433d 19c2 b4bd
00000050: 7f15 263e 7746 80bd 92b6 a83d bb6e 243c
00000060: f670 0bbe 5dd7 6abc 3742 a03d 3b33 bb3d
00000070: 4b8f 9e3c 559b 103e 7d94 61bd 9eb0 eb3b
00000080: 732e 82bc 3ede 1ebd 4d46 a4bd b517 71bd
00000090: a40c d4bd da45 5d3d c394 8abd 4cf1 2dbd
000000a0: a9e2 793d 650f 17bb 34ad efbc 4b98 793d
000000b0: e019 853c 2f61 bdbd 7270 053e f4c3 023d
000000c0: 6000 babd 22c9 ed3c f58d 793c 81ab 57bd
000000d0: 4e9b ac3c 169d 41bd 6a21 cebd 46a9 61bc
000000e0: 513d 9c3c 39f0 53bc f850 443d 1566 893d
000000f0: f108 123d 54e6 53bd 05f1 c4bd c465 11bd
00000100: 0d23 babd a4ee 863e a4e5 97bd 6c8c 52bd
00000110: 4149 afbd e649 98bd d5e7 5bbc 6084 e0bd
00000120: c103 013e 5f36 6fbd 0dfa 81bd e4b4 62bd
00000130: 414d 0abd c33b 30be 3090 303d 8795 053d
00000140: 64eb fabd 429f e1bc ef68 cc3b f0cd 65bd
00000150: 8872 82bd 009b 2dbd 7da5 0fbe 4f2c 18be
00000160: 31aa 41bd 5e59 b03b c95e 65bd 9989 5b3d
00000170: 5f56 cabd 0cd0 44bd 829a 3cbc 0dc0 e93b
00000180: 525b 1e3d e93b 1b3d fdb4 63bd ccce 503d
00000190: 1dd1 2f3e 4707 283d b665 e1bd f787 66bd
000001a0: 6407 333e b950 3c3d a896 473e 438f 423d
000001b0: 2dce 253d 5ec4 cabd 0c09 9d3d 71dc f2bd
000001c0: 6781 173c 62c9 a1bd a078 3c39 1ec2 1ebe
000001d0: cadf 96bc e697 22bb fde4 debd bdc2 aebd
000001e0: fb7b c8bb 5f47 bc3d a8af 9fbd 2325 133e
000001f0: a7e6 113e e1a5 443d 1fe8 e03b 8ef4 1e3d
00000200: fed3 bebc 7a88 a1bd 5715 dcbd 070f 66bd
00000210: 2e31 fb3c f183 893d 7e5f 15bd 3436 253d
00000220: c0b4 803d 49f7 c23a c028 babc c491 72bd
00000230: 377a 253e a512 86bd 6303 853b 2be4 543d
00000240: 0d73 8ebd 8254 b5bc 8e87 de3c aff0 67bd
00000250: 8950 333d e5d3 cb3b 8011 acbd e839 983c
00000260: 7bce d33d 371e 94bc f287 ba3d 848b 693c
00000270: 56d7 16bd 8997 75ba a530 0cbe 88b6 ca3c
00000280: a8ff b53d 7112 863d 9bbe 1dbd 7f2f 01be
00000290: 2140 e23c be5c fa3d 524f 94bd 881e 66bd
000002a0: 4247 80bd 53f2 023e 1c7e 793d 45f3 0e3d
000002b0: 06d9 d9bd 5129 a33d c6c8 07be fb86 0cbe
000002c0: 61fb 04bd 89dc 13be d415 cf3c 5738 8c3d
000002d0: 97ef 153d dfc0 e1ba 0bfe 8dbd 87f0 7bbd
000002e0: e662 39bd 7db9 d6bc 7089 fa3c 88ba 6c3e
000002f0: a6d2 17bc eaed 13bd 7548 2e3d f62e 113e
00000300: 468b f2bc f14c 823c 04ed 6a3d acff 0abd
00000310: 8c5b 20bd 884e acbd b968 083e e1e0 053c
00000320: e257 6e3e 23aa ddbc 1f27 32bd d0b3 043d
00000330: b424 903c 1f2d 243e 04d0 523d f2e0 603e
00000340: 50ce d53c a736 1f3b a822 c2bd cc78 a7bd
00000350: 3628 e0bd 50d1 b4bd 5bdd bd3c a7d9 5c3e
00000360: bf50 aebd 6011 fbbd 5d69 c6bb 2065 65bd
00000370: 0271 f8bb f97d 6a3e be5d d8bc 27e9 81bd
00000380: 5720 b23c 15d7 573d dfd4 a6bd ec77 c9bb
00000390: f089 abbd 717c 253e 5bdd 57bd b8ef f0bd
000003a0: 9dbb 96bc 4ce0 563d 2d6f 173d 8bc4 7d3d
000003b0: d6da 0d3e afea ddbc 8fe0 5c3e 9c58 043e
000003c0: 5c88 f13d 9043 b53d 3b12 b83c 7fab a9bd
000003d0: 488b d5bd 9d5c d7bd 0890 68bc 91e6 4d3d
000003e0: dda1 f1bc 3afd 3d3e 6032 3d3e 2330 3dbb
000003f0: 9984 c6bc 264b 3fbd 4c7e a2bd df76 e43d

classifier.4.weight f4 [10, 490]
0.27394885 -0.17571996 0.05479865 -0.17397726 0.13739434 -0.14137577 0.30741236 -0.28195378
-0.051872335 -0.05052441 -0.019494185 -0.03933882 0.074784964 -0.016133247 -0.21055052 0.073455416
0.18550903 -0.048236396 -0.08666097 -0.034262422 -0.17053892 0.19268881 -0.004954203 0.24848318
0.19553767 -0.1670891 0.30605665 -0.257625 -0.31213 0.12907487 -0.28539014 0.3238341
-0.09992141 0.31488663 -0.076320186 0.04334183 -0.19359738 0.041650333 0.14255285 -0.031983066
-0.4435611 0.21397823 0.23802646 -0.14469777 -0.14274672 -0.052617997 0.31927273 0.29169887
-0.21347485 0.30174312 0.3668977 0.105787866 -0.19330022 -0.23892033 0.122310266 0.09473365
-0.19621629 0.022740798 0.14780244 0.19688728 0.23989798 -0.1366693 0.2016888 0.20534456
0.0012582566 -0.18149875 0.14284647 0.082611665 0.12545376 -0.16926813 -0.012025053 0.16524972
0.22523859 0.037460204 -0.16834064 -0.116231754 0.16021727 0.045939013 0.40186328 -0.1434079
0.15539265 0.24367474 0.20073132 0.014751393 -0.19559221 0.193655 -0.014206057 -0.08249082
-0.042240378 -0.09081381 -0.2567118 -0.0044411034 0.3212861 0.042562354 0.16496433 0.20200007
0.3204398 0.17713809 -0.22146611 0.2888513 -0.022032954 0.28220773 0.079699576 -0.08297165
-0.1057587 -0.12001296 0.040100772 0.016880332 0.0032006877 0.39505565 -0.04294969 -0.0857049
-0.20372592 0.02620757 -0.04482353 0.039473224 0.24148786 0.30846524 -0.06967508 -0.09966574
-0.12808858 0.08815636 -0.079156116 0.31672302 0.092248686 -0.073761076 -0.03939528 0.10807451
-0.15229797 0.27477092 0.025483055 -0.065130465 0.10960414 -0.09131283 0.16623572 0.25431395
0.15493539 -0.25200897 0.1359135 0.2749125 0.30369204 -0.18447663 -0.007499704 -0.24894781
-0.17118073 -0.14109534 -0.15004228 -0.012617012 0.31100604 0.123467766 0.15314774 -0.029019123
-0.06640723 0.098561764 0.16934064 0.18605384 -0.13116512 -0.20675969 -0.24658245 -0.23494053
0.14322905 0.30121407 -0.109419525 -0.09156594 0.28723404 0.2256954 -0.08178068 0.2456459
-0.0040612225 0.19851868 0.35338956 0.2357834 0.07809579 0.38928527 -0.072702624 0.09620869
-0.27828598 -0.0896464 0.19167273 -0.24845299 0.37746823 0.1954012 -0.2124848 0.53722924
-0.12609683 -0.2519283 0.36509982 -0.03030029 0.1646308 -0.14182627 -0.43139786 0.3719012
0.2581738 -0.07687248 0.1569723 0.0032262777 -0.4299105 0.1393183 0.32197803 -0.12685814
-0.20773207 -0.107499994 -0.27170363 -0.08430828 0.120574236 -0.13475935 0.012964827 -0.37231177
0.29364115 -0.2287431 -0.19359098 0.05953696 0.1572086 0.24180114 0.07910218 0.20333432
-0.087496646 0.29327273 0.0013239322 0.1869117 -0.149939 0.25624412 0.03381866 0.061828166
0.20694801 -0.33006302 0.11467435 -0.08000031 -0.026792556 -0.02776012 -0.19004132 -0.23786397
0.17282495 0.12154573 0.2281221 0.16992302 0.096532114 0.05474173 0.14278649 -0.0656108
0.24163508 0.016166868 0.16931161 0.07551994 0.16294217 0.16796397 -0.14280502 0.24186471
-0.2142823 0.008839188 -0.046039794 0.2694929 0.086745605 0.015260707 -0.014024326 0.277455
00000000: 0643 8c3e efef 33be 8d74 603d 1827 32be
00000010: 1ab1 0c3e cfc4 10be 2765 9d3e 3f5c 90be
00000020: 1678 54bd aff2 4ebd 45b2 9fbc be21 21bd
00000030: dc28 993d df29 84bc 8e9a 57be cb6f 963d
00000040: 14f6 3d3e 8793 45bd 4e7b b1bd c156 0cbd
00000050: c1a1 2ebe 3750 453e de56 a2bb 6072 7e3e
00000060: 073b 483e 6819 2bbe 75b3 9c3e 6de7 83be
00000070: 81cf 9fbe 342c 043e a81e 92be 95cd a53e
00000080: 99a3 ccbd d238 a13e c24d 9cbd 3487 313d
00000090: 643e 46be 8a99 2a3d 60f9 113e ad00 03bd
000000a0: 711a e3be 1c1d 5b3e 35bd 733e a72b 14be
000000b0: 322c 12be f885 57bd b777 a33e 8e59 953e
000000c0: 2799 5abe 137e 9a3e 04da bb3e 4fa7 d83d
000000d0: 7ef0 45be 88a7 74be ce7d fa3d b703 c23d
000000e0: ecec 48be e94a ba3c 8659 173e d29c 493e
000000f0: d1a7 753e 09f3 0bbe 8287 4e3e d845 523e
00000100: 16ec a43a cfda 39be 5846 123e 4e30 a93d
00000110: f376 003e a054 2dbe ba04 45bc 3937 293e
00000120: f2a4 663e df6f 193d 7d61 2cbe ea0a eebd
00000130: ff0f 243e 8c2a 3c3d 06c1 cd3e 85d9 12be
00000140: 401f 1f3e df85 793e 838c 4d3e d4af 713c
00000150: 5349 48be 7f4d 463e 86c0 68bc f2f0 a8bd
00000160: 3f04 2dbd 97fc b9bd bb6f 83be ad86 91bb
00000170: 9d7f a43e dd55 2e3d 69ec 283e 1bd9 4e3e
00000180: af10 a43e b063 353e 03c8 62be 51e4 933e
00000190: 747e b4bc 887d 903e 8839 a33d 0aed a9bd
000001a0: 0498 d8bd 5bc9 f5bd b540 243d 9f48 8a3c
000001b0: a1c2 513b bc44 ca3e 04ec 2fbd 0d86 afbd
000001c0: 879d 50be 42b1 d63c e198 37bd adae 213d
000001d0: 9848 773e 28ef 9d3e cfb1 8ebd 8d1d ccbd
000001e0: a729 03be 528b b43d 9a1c a2bd 8529 a23e
000001f0: e1ec bc3d 0c10 97bd f25c 21bd 2b56 dd3d
00000200: 00f4 1bbe c6ae 8c3e d7c1 d03c 1f63 85bd
00000210: 2378 e03d 3902 bbbd b239 2a3e 7035 823e
00000220: 62a7 1e3e 5207 81be e92c 0b3e 55c1 8c3e
00000230: 867d 9b3e 71e7 3cbe 14c0 f5bb 2dec 7ebe
00000240: 004a 2fbe 4c7b 10be afa4 19be 95b7 4ebc
00000250: 2f3c 9f3e abdc fc3d c3d2 1c3e 83b9 edbc
00000260: 8400 88bd c0da c93d a267 2d3e e684 3e3e
00000270: 2650 06be d0b8 53be 1c80 7cbe 4094 70be
00000280: a3aa 123e bb38 9a3e 5817 e0bd ec86 bbbd
00000290: 5710 933e b21c 673e a17c a7bd 998a 7b3e
000002a0: 0114 85bb 7b48 4b3e 7aef b43e 3471 713e
000002b0: b0f0 9f3d 6650 c73e 1de5 94bd 1009 c53d
000002c0: 807b 8ebe 8898 b7bd db45 443e 766a 7ebe
000002d0: 8443 c13e 4117 483e 9e95 59be db87 093f
000002e0: 871f 01be bffc 80be 5dee ba3e 5038 f8bc
000002f0: fa94 283e e83a 11be 2ee0 dcbe d669 be3e
00000300: 5b2f 843e 526f 9dbd 59bd 203e f56f 533b
00000310: 3b1d dcbe 75a9 0e3e 4eda a43e 1ae7 01be
00000320: b7b7 54be f528 dcbd bd1c 8bbe d2a9 acbd
00000330: a0ef f63d 5bfe 09be 6d6a 543c a69f bebe
00000340: 2258 963e a23b 6abe b73c 46be 07dd 733d
00000350: 4bfb 203e b89a 773e 5300 a23d df36 503e
00000360: 7131 b3bd d827 963e cb87 ad3a c865 3f3e
00000370: 9c89 19be 6e32 833e 6f85 0a3d 883f 7d3d
00000380: 2eea 533e 05fe a8be 63da ea3d 34d7 a3bd
00000390: 107c dbbc 3169 e3bc 319a 42be 9d92 73be
000003a0: 06f9 303e f8ec f83d d798 693e 4d00 2e3e
000003b0: a1b2 c53d dd38 603d 9f36 123e f55e 86bd
000003c0: 306f 773e 6170 843c 0660 2d3e 33aa 9a3d
000003d0: 50da 263e bffe 2b3e 7b3b 12be 62ab 773e
000003e0: d26c 5bbe 3ed2 103c 3994 3cbd f9fa 893e
000003f0: aea7 b13d 0b08 7a3c 49c6 65bc 950e 8e3e

classifier.4.bias f4 [10]
0.7571667 -1.5059668 0.9105378 1.0447177 1.0061878 -1.2162633 0.98590916 -0.16685422
-0.67019755 -1.2573804
00000000: add5 413f 85c3 c0bf 0119 693f 4fb9 853f
00000010: c3ca 803f 84ae 9bbf 8b64 7c3f d5db 2abe
00000020: 1192 2bbf d7f1 a0bf
