freeCodeCamp_org/chapter_03_computer_vision/tiny_vgg_v001.pth (torch, 998034 bytes, 12 tensors)

conv_block_1.0.weight f4 [10, 1, 3, 3]
0.22402596 0.4164839 -0.11654044 1.1184925 0.93692404 -0.5953928 -1.0174667 -0.8131251
-0.28002363 -1.0475688 2.0255542 -0.6669157 -1.6125556 2.3815439 -0.69220996 -1.2052406
1.6148686 -0.3695285 -1.3157382 0.059010293 1.8149053 -2.7996912 -0.26364535 2.6618106
-1.8721465 -0.48695904 2.0623019 -0.99976635 -2.6753669 1.1431717 -0.32647455 -3.402003
0.82426244 1.0273314 -1.1271122 0.4131471 -0.10212791 0.7751805 -0.9205288 0.19177192
1.3885964 -0.70712763 0.56015754 0.41950062 -1.2754351 -0.1883953 0.18888894 0.16667351
0.05080848 -0.30755034 -0.2356581 -0.13436013 -0.25560918 0.5337706 0.89287025 0.5144339
-0.41602692 -0.07064511 -1.9319452 -1.5547452 -0.8879887 -2.1502395 -1.4065377 0.04487278
0.055814542 -0.79427594 0.70835125 -0.35812363 -1.2320085 0.15750387 0.5760986 0.24751726
-0.1716224 -0.66474456 -1.8131771 0.2723521 -0.61245656 -1.4403236 0.46340394 0.9684261
0.12392206 -0.22633342 0.17496644 -0.13740735 0.20313475 -0.07954202 0.19067626 -0.25890392
-0.16814838 0.10268462
00000000: 1067 653e 613d d53e c1ac eebd c32a 8f3f
00000010: 41da 6f3f aa6b 18bf 593c 82bf f728 50bf
00000020: 425f 8fbe bc16 86bf aea2 0140 fdba 2abf
00000030: 3968 cebf 376b 1840 ac34 31bf 5345 9abf
00000040: 04b4 ce3f d732 bdbe 1c6a a8bf c7b4 713d
00000050: d14e e83f 242e 33c0 86fc 86be 1b5b 2a40
00000060: 7fa2 efbf b252 f9be c1fc 0340 b0f0 7fbf
00000070: 3639 2bc0 7353 923f ac27 a7be 6bba 59c0
00000080: dd02 533f 987f 833f 3645 90bf 0488 d33e
00000090: 7028 d1bd 3b72 463f c7a7 6bbf dc5f 443e
000000a0: 87bd b13f 5106 35bf 7c66 0f3f c9c8 d63e
000000b0: 7541 a3bf b3ea 40be 1a6c 413e 76ac 2a3e
000000c0: 8d1c 503d 3d77 9dbe 5b50 71be b495 09be
000000d0: 35df 82be 31a5 083f 2593 643f f1b1 033f
000000e0: 7b01 d5be 62ae 90bd fb49 f7bf e401 c7bf
000000f0: 3a53 63bf 869d 09c0 6d09 b4bf 85cc 373d
00000100: ca9d 643d ab55 4bbf 8256 353f fb5b b7be
00000110: 74b2 9dbf b248 213e 337b 133f 2a75 7d3e
00000120: c8bd 2fbe b32c 2abf 3016 e8bf bc71 8b3e
00000130: f4c9 1cbf 865c b8bf 4843 ed3e c6ea 773f
00000140: d9ca fd3d f3c3 67be 672a 333e 83b4 0cbe
00000150: 8e02 503e ede6 a2bd a340 433e 0e8f 84be
00000160: 172f 2cbe 504c d23d

conv_block_1.0.bias f4 [10]
-0.0019655507 -0.1782202 -0.05549337 0.21800181 -0.29761097 0.17368501 0.17475906 -0.03816833
-0.0013597332 -0.3215878
00000000: 78d0 00bb 5b7f 36be 044d 63bd de3b 5f3e
00000010: 7760 98be 7cda 313e 0af4 323e 6556 1cbd
00000020: 1339 b2ba 28a7 a4be

conv_block_1.3.weight f4 [10, 10, 3, 3]
-0.07862937 0.28110874 0.09613747 -0.2732717 -0.49511412 -0.15723605 -0.41425574 -0.749574
-0.5706512 -0.3109346 0.07688746 0.063391395 -0.6777362 -0.46209738 0.09424684 -0.62633866
-0.49224335 0.060704857 -0.041060913 0.02018334 0.077478446 -0.091074586 0.0066520786 0.0916524
-0.09832678 -0.010257875 0.045585718 0.016057767 0.21058342 0.21402012 -0.009180437 0.17723903
0.2949426 0.13614906 0.20416656 0.3423201 -0.19872689 -0.40911415 -0.19351786 -0.3946662
-0.56202775 -0.3149709 -0.20066264 -0.18876348 -0.017118068 0.041322626 0.079513565 0.14828873
0.15398666 0.04615091 0.11367638 0.025875712 0.0627704 0.0014889411 0.77207226 0.095308244
0.043710295 0.27452597 0.2200948 0.0048615555 0.13609743 0.13588528 -0.050691728 -0.3019886
-0.28179893 -0.2594087 -0.08001829 -0.09520708 -0.48518816 0.07213 -0.09996808 -0.048169237
-0.6165527 -0.4581488 -0.39756903 -0.0042080833 -0.03989532 -0.5076615 0.41073927 0.18232383
0.0600616 0.054384965 0.01999448 -0.037871778 0.055019498 0.05514648 0.038731046 -0.01855133
-0.027939063 0.010934734 0.024028927 -0.03480433 -0.057406165 0.030658577 -0.0137634715 -0.021932157
0.11368484 0.02117541 -0.03586239 -0.1653863 0.108352736 0.009433281 0.30566442 -0.008541662
0.061677795 -0.19009198 -0.033343527 0.024201965 -0.14211836 -0.029081274 -0.11886654 0.59323746
-0.06823889 -0.09756465 -0.14800808 -0.019912088 -0.042523842 0.10145473 -0.07261189 -0.091727175
0.06600015 -0.03187929 -0.05653029 -0.01205125 -0.11551604 0.03728866 -0.07280944 -0.040487017
-0.042068347 0.026545864 -0.039896827 -0.03445342 0.010669698 0.018833313 -0.021483622 0.044593688
-0.0032703632 -0.06273293 -0.057643898 -0.09588482 0.030347636 -0.05410218 -0.038692273 -0.06971485
-0.025487341 -0.08370185 -0.053952094 0.012658914 -0.019100575 0.0423498 -0.018997831 -0.026858855
-0.0048026987 -0.14445132 -0.10317367 -0.062785946 -0.051693793 -0.05487001 -0.051857617 -0.048353236
0.047445137 0.009137972 -0.044717446 -0.06317742 -0.03228061 -0.0410748 -0.014128216 0.0007090607
-0.07161948 -0.07509218 0.072044276 -0.10466134 0.06540653 0.07887428 0.0995889 -0.02485163
-0.08656927 0.023665769 0.058171708 -0.104897715 0.06412333 -0.1300006 -0.08307957 -0.07908135
-0.07899023 -0.027781995 -0.025830094 -0.042573128 -0.042621758 0.099169925 -0.061076727 -0.07677484
-0.14206545 0.5714227 -0.051589526 -0.38565823 -0.04464489 -0.14463758 -0.016796011 -0.16263023
-0.18099889 -0.099634066 -0.16792934 -0.10646335 -0.11514275 0.7742966 -0.085380144 -0.49157536
-0.22723565 -0.013113003 -0.2718939 -0.1528562 -0.07545607 -0.19382806 0.44636562 -0.25170204
-0.15982388 0.020106604 0.07961798 -0.18862776 0.011801754 0.033241946 -0.122100726 0.034604594
0.008849632 -0.055409122 -0.07064065 -0.09206947 -0.04785534 -0.01796697 0.07676416 0.03729335
-0.05254342 -0.07265058 0.17837617 -0.051941704 -0.010736408 0.08458247 -0.1854007 -0.15658958
0.19273598 -0.039502412 -0.04118835 -0.32608652 -0.3498315 -0.24870716 0.026619121 -0.30586606
-0.41488206 -0.09975115 -0.40669036 -0.38021016 -0.22102763 -0.15869765 -0.28960368 0.083992004
00000000: 6f08 a1bd 7ced 8f3e b9e3 c43d 45ea 8bbe
00000010: 997f fdbe 7d02 21be 5419 d4be 15e4 3fbf
00000020: 3216 12bf d232 9fbe 2c77 9d3d 59d3 813d
00000030: 1f80 2dbf 0798 ecbe 7d04 c13d bb57 20bf
00000040: 5207 fcbe a8a5 783d 7d2f 28bd 8857 a53c
00000050: 05ad 9e3d 5085 babd aef9 d93b 41b4 bb3d
00000060: 8d5f c9bd a510 28bc 17b8 3a3d 948b 833c
00000070: 2ea3 573e 1728 5b3e 8b69 16bc 267e 353e
00000080: b702 973e a96a 0b3e 0a11 513e 9544 af3e
00000090: 107f 4bbe 6977 d1be 8c29 46be b011 cabe
000000a0: 0de1 0fbf de43 a1be 827a 4dbe 374b 41be
000000b0: 313b 8cbc ea41 293d 02d8 a23d 00d9 173e
000000c0: aeae 1d3e bd08 3d3d 29cf e83d 4df9 d33c
000000d0: c48d 803d 9328 c33a 87a6 453f f830 c33d
000000e0: 9109 333d ab8e 8c3e 8860 613e af4d 9f3b
000000f0: 205d 0b3e 8325 0b3e 21a2 4fbd 409e 9abe
00000100: f347 90be 38d1 84be a1e0 a3bd eefb c2bd
00000110: 956a f8be e5b8 933d 11bc ccbd 1b4d 45bd
00000120: 66d6 1dbf 7b92 eabe 2b8e cbbe f6e3 89bb
00000130: 4669 23bd 1bf6 01bf 6b4c d23e 19b3 3a3e
00000140: 2703 763d c5c2 5e3d 77cb a33c 701f 1bbd
00000150: 205c 613d 47e1 613d 72a4 1e3d f5f8 97bc
00000160: 76e0 e4bc 9927 333c 50d8 c43c fc8e 0ebd
00000170: ba22 6bbd b227 fb3c 2f80 61bc 11ab b3bc
00000180: 99d3 e83d 0e78 ad3c 71e4 12bd 075b 29be
00000190: 0ae8 dd3d 0c8e 1a3c 0c80 9c3e 54f2 0bbc
000001a0: dba1 7c3d 79a7 42be 3993 08bd 3343 c63c
000001b0: 7a87 11be da3b eebc 4d70 f3bd 69de 173f
000001c0: d5c0 8bbd facf c7bd 6e8f 17be ad1e a3bc
000001d0: 7b2d 2ebd 7fc7 cf3d 8bb5 94bd 75db bbbd
000001e0: 162b 873d dc93 02bd 4e8c 67bd 9b72 45bc
000001f0: ac93 ecbd febb 183d 1e1d 95bd b7d5 25bd
00000200: dc4f 2cbd b676 d93c db6a 23bd 081f 0dbd
00000210: f5cf 2e3c 5248 9a3c 6cfe afbc dfa7 363d
00000220: 9753 56bb 1f7a 80bd 021c 6cbd 435f c4bd
00000230: 9b9b f83c 3f9a 5dbd ca7b 1ebd a9c6 8ebd
00000240: d4ca d0bc e06b abbd dffc 5cbd 5567 4f3c
00000250: cf78 9cbc fc76 2d3d 57a1 9bbc 1a07 dcbc
00000260: f55f 9dbb 0ceb 13be b84c d3bd eb95 80bd
00000270: dfbc 53bd 60bf 60bd a768 54bd 0b0e 46bd
00000280: d555 423d 6fb7 153c a429 37bd 2a63 81bd
00000290: ac38 04bd 0d3e 28bd 087a 67bc 42e0 393a
000002a0: 3cad 92bd eec9 99bd f38b 933d af58 d6bd
000002b0: dcf3 853d d788 a13d 44f5 cb3d a595 cbbc
000002c0: 3b4b b1bd b7de c13c 7545 6e3d 9dd4 d6bd
000002d0: 1853 833d e11e 05be 9f25 aabd 67f5 a1bd
000002e0: a1c5 a1bd 1197 e3bc a299 d3bc 2961 2ebd
000002f0: 2794 2ebd 9a19 cb3d 972b 7abd 213c 9dbd
00000300: 9b79 11be c248 123f 8a4f 53bd ff74 c5be
00000310: 8fdd 36bd e01b 14be ca97 89bc 8a88 26be
00000320: c657 39be f20c ccbd abf5 2bbe 7509 dabd
00000330: f6cf ebbd 4d38 463f c9db aebd c4af fbbe
00000340: 76b0 68be ecd7 56bc ad35 8bbe 5686 1cbe
00000350: b688 9abd dd7a 46be 098a e43e 17df 80be
00000360: dfa8 23be 9bb6 a43c c00e a33d a327 41be
00000370: 255c 413c b528 083d f20f fabd 8cbd 0d3d
00000380: 0cfe 103c adf4 62bd 0cac 90bd eb8e bcbd
00000390: f603 44bd 782f 93bc 8736 9d3d e9c0 183d
000003a0: c537 57bd d4c9 94bd 3ea8 363e d3c0 54bd
000003b0: c2e7 2fbc 9339 ad3d aed9 3dbe 0559 20be
000003c0: 955c 453e 48cd 21bd 1eb5 28bd d0f4 a6be
000003d0: 1d1d b3be 17ad 7ebe 5810 da3c 7a9a 9cbe
000003e0: 6c6b d4be 554a ccbd b839 d0be e8aa c2be
000003f0: 1155 62be a381 22be ef46 94be 0004 ac3d

conv_block_1.3.bias f4 [10]
-0.0052028317 0.018696552 0.0098012425 0.99243885 0.30720425 0.4871091 0.14042486 0.23247732
0.62063503 0.068297364
00000000: 847c aabb 8329 993c 6495 203c 7910 7e3f
00000010: e049 9d3e 5d66 f93e 89cb 0f3e 890e 6e3e
00000020: f0e1 1e3f 7ddf 8b3d

conv_block_2.0.weight f4 [10, 10, 3, 3]
-0.051266287 -0.11926095 -0.17293987 -0.02923278 0.023254514 -0.65973717 -0.21309723 0.036441546
0.003205095 0.01618607 0.025750468 -0.015065583 -0.10703885 0.08668649 0.07407702 0.022020504
-0.03165826 -0.02714289 -0.00085801474 0.1885998 -0.035744105 -0.0714255 0.088001214 0.05492124
-0.01473131 -0.0719301 0.0985519 -0.6414412 -0.5108781 0.24774528 -0.5602984 -0.56679296
0.12164969 0.4654547 0.18205105 -0.12140253 0.02790902 -0.46780705 0.07139202 -0.02228536
-0.44722858 0.07968099 -0.12443724 0.11210417 0.030142233 -0.3237808 -0.16789737 -0.108470276
-0.29596278 -0.17382772 0.16657896 0.011465211 -0.08303304 0.0067689386 0.3183034 -0.10910485
-0.08352667 0.24197105 -0.1553977 -0.045848917 -0.030217487 -0.08139075 0.040255073 0.21403368
-0.049930014 -0.0660824 0.136965 -0.4210365 0.16366164 -0.22208916 -0.25291264 -0.06486587
0.13154754 -0.38458392 0.100463085 0.060113896 -0.65337485 -0.1383786 -0.31791997 -0.15525764
0.056397863 -0.21434394 -0.40323168 0.10863788 0.16078404 -0.3294996 0.14536771 0.16804078
-0.21408683 -0.07227661 -0.418639 -0.2502657 -0.36272842 -0.5814932 -0.040522095 0.004372641
-0.11966951 0.21170881 0.15366127 0.06131608 -0.25162998 -0.38123378 0.031675525 -0.3197544
-0.4324415 0.10212449 -0.175178 -0.1526512 -0.18969402 -1.1392809 -0.32375333 -0.1553843
-0.49490476 -0.23325504 0.06920903 0.10023071 0.0994325 -0.08821973 0.045896523 -0.12365039
0.79183316 0.7636634 0.040444087 -0.31235403 -0.3348904 -0.6133267 -0.33266532 0.30557874
-0.09126531 -0.006679018 0.29641077 -0.01820897 0.23365246 0.19837555 0.051958892 -0.11515627
-0.12694469 -0.2504623 0.29406735 0.22223751 -0.11321551 -0.07082198 0.0070001977 -0.3325948
-0.9655617 -0.17900942 0.06253159 -0.89300686 -0.2716498 -0.006413866 -0.0016803556 0.14273918
0.115840554 -0.2770579 0.122624755 0.12023562 -0.2820978 -0.14834595 0.027843961 0.14488132
0.107075386 -0.015404302 0.07696048 0.03389996 -0.2714103 0.04535387 0.4288557 0.15536398
-0.31208628 0.43176177 -0.34369582 0.06850191 0.0077606095 0.0036892488 0.112043075 0.22034402
0.20734045 0.020335913 0.05867747 -0.11079207 -0.03667741 -0.09724081 -0.16525589 -0.010565704
-0.40972677 -0.45794797 0.28995544 0.3350558 -0.1216719 -0.052841935 -0.13854815 -0.4340892
0.0315163 0.042396266 -0.36303535 -0.06337026 0.10667305 -0.019783981 -0.00043556668 -0.07291845
-0.9661696 0.031035699 -0.013814693 -0.8975334 0.016597785 0.15106137 -0.06114562 0.102631114
0.37692857 -0.058050927 0.16410965 0.31689432 0.47699392 -0.3376401 -0.3999207 0.040167417
0.121666856 0.2632207 0.107727654 -0.32429892 0.5228156 0.29722795 -0.013012641 -0.08966045
0.06546983 -0.08500715 -0.09606628 -0.5004099 -0.1340067 0.23753622 0.12957186 -0.15138662
-0.096717134 0.04754275 -0.35322422 -0.13623989 -0.09027437 -0.40301782 -0.33087617 -0.13050869
0.06650819 -0.40153444 -0.475947 -0.046537533 0.059131578 0.0030021723 0.040549167 0.3628494
0.24010952 0.061413467 -0.009170538 -0.26424503 -0.26473755 0.49828815 0.2613288 -0.6803868
00000000: 99fc 51bd 163f f4bd 2617 31be 9579 efbc
00000010: 4080 be3c 89e4 28bf 2936 5abe bb43 153d
00000020: 920c 523b a698 843c a5f2 d23c a3d5 76bc
00000030: 2f37 dbbd b088 b13d b1b5 973d 5864 b43c
00000040: 17ac 01bd c45a debc 65ec 60ba 4e20 413e
00000050: 6968 12bd 8847 92bd fb39 b43d 18f5 603d
00000060: 985b 71bc 1750 93bd 94d5 c93d 7e35 24bf
00000070: e8c8 02bf f0b0 7d3e b76f 0fbf 5819 11bf
00000080: 7923 f93d 1450 ee3e 976b 3a3e e4a1 f8bd
00000090: 75a1 e43c 6884 efbe fb35 923d ca8f b6bc
000000a0: 25fb e4be c92f a33d f4d8 febd df96 e53d
000000b0: d8ec f63c 99c6 a5be 4aed 2bbe aa25 debd
000000c0: 6f88 97be e5ff 31be ad93 2a3e 95d8 3b3c
000000d0: 3a0d aabd f9cd dd3b aaf8 a23e 5d72 dfbd
000000e0: 0810 abbd 42c7 773e 9320 1fbe 13cc 3bbd
000000f0: aa8a f7bc 32b0 a6bd 81e2 243d a52b 5b3e
00000100: 6a83 4cbd 3656 87bd 8e40 0c3e 1992 d7be
00000110: eb96 273e 576b 63be c47d 81be 66d8 84bd
00000120: 66b4 063e 2fe8 c4be 97bf cd3d fd39 763d
00000130: 9343 27bf 1fb3 0dbe 68c6 a2be dcfb 1ebe
00000140: 7201 673d fa7c 5bbe 6274 cebe 897d de3d
00000150: 92a4 243e 2cb4 a8be 46db 143e e212 2c3e
00000160: 9439 5bbe c205 94bd da57 d6be d322 80be
00000170: 8ab7 b9be bddc 14bf 7ffa 25bd 5f48 8f3b
00000180: 4a15 f5bd 32ca 583e 6159 1d3e 9226 7b3d
00000190: a5d5 80be 1331 c3be 32be 013d d9b6 a3be
000001a0: f968 ddbe a526 d13d dd61 33be 9950 1cbe
000001b0: 263f 42be f5d3 91bf ffc2 a5be 101d 1fbe
000001c0: 2864 fdbe 69da 6ebe 77bd 8d3d c245 cd3d
000001d0: 44a3 cb3d 8cac b4bd fefd 3b3d 6a3c fdbd
000001e0: 94b5 4a3f 727f 433f b3a8 253d deec 9fbe
000001f0: c176 abbe fb02 1dbf 1c53 aabe d174 9c3e
00000200: 4fe9 babd aadb dabb 27c3 973e fa2a 95bc
00000210: 9742 6f3e f622 4b3e d9d2 543d 0dd7 ebbd
00000220: cafd 01be 983c 80be ff8f 963e 3b92 633e
00000230: 89dd e7bd 1d0b 91bd ea61 e53b de49 aabe
00000240: 0d2f 77bf 3f4e 37be 9010 803d 199c 64bf
00000250: af15 8bbe 682b d2bb 613f dcba 382a 123e
00000260: d03d ed3d 88da 8dbe b022 fb3d 183e f63d
00000270: 1f6f 90be 00e8 17be 0519 e43c c55b 143e
00000280: 574a db3d 5362 7cbc 759d 9d3d afda 0a3d
00000290: 4af6 8abe fbc4 393d f992 db3e bc17 1f3e
000002a0: c6c9 9fbe e10f dd3e e6f8 afbe bb4a 8c3d
000002b0: b64c fe3b 53c7 713b d776 e53d dda1 613e
000002c0: 0e51 543e 8097 a63c c957 703d f4e6 e2bd
000002d0: 0d3b 16bd 3126 c7bd d738 29be c61b 2dbc
000002e0: b5c7 d1be 2878 eabe 0a75 943e 6f8c ab3e
000002f0: 1e2f f9bd c970 58bd 91df 0dbe f140 debe
00000300: 3c17 013d b5a7 2d3d c5df b9be 44c8 81bd
00000310: 6677 da3d 0412 a2bc c55c e4b9 4556 95bd
00000320: e456 77bf 943e fe3c 0657 62bc c0c4 65bf
00000330: 14f8 873c d5af 1a3e d473 7abd 4330 d23d
00000340: c8fc c03e cfc6 6dbd 5c0c 283e f93f a23e
00000350: 8c38 f43e 2adf acbe 68c2 ccbe 9786 243d
00000360: 792c f93d ddc4 863e 51a0 dc3d 820a a6be
00000370: 3ed7 053f 432e 983e f932 55bc e69f b7bd
00000380: 0c15 863d 3b18 aebd 66be c4bd dd1a 00bf
00000390: 0d39 09be b23c 733e 7cae 043e 1805 1bbe
000003a0: a213 c6bd 30bc 423d ced9 b4be 7882 0bbe
000003b0: c5e1 b8bd 5a58 cebe 9a68 a9be 12a4 05be
000003c0: 7235 883d ec95 cdbe 53af f3be 249e 3ebd
000003d0: f433 723d 18c0 443b e216 263d 66c7 b93e
000003e0: 45df 753e b08c 7b3d 0640 16bc 204b 87be
000003f0: ae8b 87be a01f ff3e e3cc 853e d42d 2ebf

conv_block_2.0.bias f4 [10]
1.6930754 0.8326378 0.034197193 1.2065512 0.5024902 0.03849021 0.17885818 1.4166237
0.4754404 0.34220448
00000000: b2b6 d83f c027 553f 5b12 0c3d 4570 9a3f
00000010: 33a3 003f e9a7 1d3d 9926 373e ed53 b53f
00000020: ed6c f33e 6d35 af3e

conv_block_2.3.weight f4 [10, 10, 3, 3]
0.026666868 -0.41952527 0.08395345 0.010085844 -0.61698234 0.18372926 0.044935834 -0.42386895
0.09915315 0.08016021 -0.06365344 -0.38150695 0.062380802 -0.12212493 -0.48847124 0.004780931
-0.08345512 -0.46797168 -0.047891673 -0.12992965 -0.035261795 0.017483462 -0.07588863 -0.34740797
-0.060585182 -0.038145646 -0.24042292 -0.4101036 0.04405513 -0.22131583 -0.45608902 0.028578147
-0.14940253 -0.21123788 0.02691396 -0.000774706 -0.70130414 -0.08903518 0.07481057 -0.62591976
-0.26427215 0.052567728 -0.38252085 -0.35150933 -0.04650558 -0.27979398 -0.21974656 0.07591495
-0.26389742 -0.41450536 0.041493017 -0.1252363 -0.34247148 -0.040026274 -0.4809399 -0.013316723
-0.04289205 -0.57099885 0.02257016 0.019937264 -0.32314128 0.11186815 0.1522957 0.086683296
0.18337484 -0.36361578 0.038197935 0.13566972 -0.25590247 -0.15319356 0.15334941 -0.10692725
-0.3154656 -0.20770873 0.116478935 -0.19232671 -0.35458326 0.014222303 -0.04254512 -0.41876587
-0.07031448 0.095130295 0.099759415 0.0809693 -0.03816159 0.15293957 0.116803005 0.08396175
0.05278069 0.07709443 -0.0029467952 0.05089111 0.0690959 0.029370446 -0.036842328 -0.0720458
-0.060932316 -0.41036877 -0.114304624 -0.17376032 -0.013922033 0.078447014 0.08723025 0.08252641
0.18451276 0.15541376 0.22854045 0.119298 -0.06401772 0.021478724 -0.024817755 0.09057947
0.10953412 0.072334774 0.07069789 0.054847512 -0.013953007 -0.047203198 0.12912004 0.052363135
0.24125047 0.2935585 0.10735563 0.18987149 0.06049758 -0.26953226 -0.23550257 -0.27914172
-0.16485532 -0.3233521 -0.2545462 -0.29983333 0.048559435 0.080213994 0.0720465 -0.17740595
-0.15326822 -0.24416722 -0.00045952736 0.14019063 0.08238808 0.116608575 0.36444575 0.2318716
0.10113033 0.18250167 0.13240354 0.17699073 0.12616478 0.06401687 0.009991244 -0.008139939
-0.10885451 -0.07918047 0.01828955 0.017597284 0.008307286 -0.08808323 -0.08684224 -0.11471648
-0.39712912 -0.36867347 0.1160392 -0.26643136 -0.23842314 -0.19748075 -0.46497473 -0.29806784
-0.11820874 0.1063102 0.12922782 0.015956903 0.0038890345 -0.046050537 -0.080875956 -0.06825641
-0.09656504 -0.11983774 -0.118007734 -0.27878788 0.2639032 0.13931024 -0.2680648 0.14114612
0.13504373 -0.21804376 -0.13274252 0.12966278 -0.081315294 -0.37457058 -0.13553226 -0.031679332
-0.56175697 -0.081430964 0.0034424227 -0.1131041 -0.10510929 -0.04000371 0.08592172 0.3055334
0.26314315 -0.3014898 0.20892857 0.35151792 -0.5124502 -0.12551872 0.21905111 -0.18881716
-0.074812226 0.13937016 -0.12874714 -0.14409977 0.09229242 -0.074074775 -0.29184207 -0.06285209
-0.024909357 -0.6111757 -0.39300185 0.0642773 -0.021578107 -0.015257773 0.08960556 0.29506028
0.120022796 0.119367644 -0.31022322 -0.28155553 -0.06946833 -0.29998302 -0.07559535 -0.045037784
-0.08682578 0.0922302 -0.098163895 -0.04802293 0.21891049 0.12318606 0.03828935 0.13546117
0.06855614 0.1054508 0.07878113 0.093487754 0.10788912 0.003078188 0.058721837 -0.37325877
-0.14374934 -0.008094883 -0.43677405 -0.18194844 -0.04277141 -0.24407414 -0.43478262 -0.04572643
00000000: 7a74 da3c 04cc d6be c9ef ab3d 193f 253c
00000010: 8ef2 1dbf 8623 3c3e a30e 383d 5a05 d9be
00000020: cf10 cb3d 092b a43d bc5c 82bd e154 c3be
00000030: 0383 7f3d a31c fabd e718 fabe 5ba9 9c3b
00000040: 85ea aabd fc99 efbe 0f2a 44bd 470c 05be
00000050: ac6e 10bd 7a39 8f3c 7f6b 9bbd 75df b1be
00000060: 2b28 78bd 9c3e 1cbd 6d31 76be 19f9 d1be
00000070: 2773 343d 9ea0 62be 8084 e9be b81c ea3c
00000080: fafc 18be be4e 58be aa7a dc3c a415 4bba
00000090: ab88 33bf 1458 b6bd 4936 993d 473c 20bf
000000a0: ae4e 87be 4251 573d c6d9 c3be 08f9 b3be
000000b0: a37c 3ebd 2841 8fbe 3e05 61be 4c79 9b3d
000000c0: 901d 87be 0c3a d4be 95f4 293d f23d 00be
000000d0: 6c58 afbe 97f2 23bd c13d f6be 622e 5abc
000000e0: 93af 2fbd fb2c 12bf 0ee5 b83c 7953 a33c
000000f0: c672 a5be 211b e53d 67f3 1b3e 0387 b13d
00000100: 9dc6 3b3e d92b babe 7075 1c3d 01ed 0a3e
00000110: a605 83be c6de 1cbe a107 1d3e adfc dabd
00000120: b584 a1be 99b1 54be 828c ee3d 4bf1 44be
00000130: f08b b5be aa04 693c cb43 2ebd 7b68 d6be
00000140: 0a01 90bd acd3 c23d aa4e cc3d 3bd3 a53d
00000150: 544f 1cbd 319c 1c3e 6a36 ef3d 23f4 ab3d
00000160: 9130 583d afe3 9d3d 051f 41bb 3273 503d
00000170: 2782 8d3d 4a9a f03c fbe7 16bd c08c 93bd
00000180: 2a94 79bd db1b d2be 8b18 eabd 3aee 31be
00000190: 3d19 64bc d4a8 a03d c6a5 b23d 9b03 a93d
000001a0: eaf0 3c3e c924 1f3e 8206 6a3e 8352 f43d
000001b0: b91b 83bd 26f4 af3c 9b4e cbbc bb81 b93d
000001c0: 6d53 e03d 4124 943d 0eca 903d c9a7 603d
000001d0: 279b 64bc 2458 41bd 0b38 043e ba7a 563d
000001e0: 5d0a 773e 4d4d 963e 45dd db3d ac6d 423e
000001f0: 4fcc 773d 2200 8abe 9627 71be aaeb 8ebe
00000200: d5cf 28be 688e a5be e153 82be c183 99be
00000210: 42e6 463d 3c47 a43d 1e8d 933d e8a9 35be
00000220: 58f2 1cbe f906 7abe b8ec f0b9 228e 0f3e
00000230: 15bb a83d 7ad0 ee3d a298 ba3e c06f 6d3e
00000240: 6b1d cf3d b8e1 3a3e cb94 073e 0f3d 353e
00000250: 5731 013e 471b 833d 51b2 233c 615d 05bc
00000260: 1def debd 5f29 a2bd f7d3 953c 2e28 903c
00000270: 481b 083c fb64 b4bd 58da b1bd 79f0 eabd
00000280: 8254 cbbe c5c2 bcbe f6a5 ed3d b169 88be
00000290: 3225 74be 6538 4abe 2b11 eebe 599c 98be
000002a0: 6d17 f2bd 2ab9 d93d 4c54 043e 0db8 823c
000002b0: 2cdf 7e3b 7d9f 3cbd 4ba2 a5bd 04ca 8bbd
000002c0: e4c3 c5bd 7d6d f5bd 0aae f1bd 49bd 8ebe
000002d0: 521e 873e 58a7 0e3e ca3f 89be 9c88 103e
000002e0: e748 0a3e dd46 5fbe a8ed 07be 52c6 043e
000002f0: a288 a6bd b7c7 bfbe f8c8 0abe 30c2 01bd
00000300: 4ecf 0fbf 47c5 a6bd 459a 613b 1fa3 e7bd
00000310: 8a43 d7bd eeda 23bd baf7 af3d e06e 9c3e
00000320: b3ba 863e df5c 9abe 5ff1 553e 28fa b33e
00000330: f02f 03bf fb87 00be ef4e 603e 4959 41be
00000340: 2737 99bd 0db7 0e3e 4ad6 03be e48e 13be
00000350: cf03 bd3d 84b4 97bd 536c 95be 99b8 80bd
00000360: b50e ccbc 0376 1cbf 8a37 c9be d1a3 833d
00000370: 92c4 b0bc bdfb 79bc 1f83 b73d 2412 973e
00000380: 83ce f53d 0677 f43d 94d5 9ebe 0c28 90be
00000390: 6945 8ebd 6097 99be bcd1 9abd 8a79 38bd
000003a0: b7d1 b1bd 30e3 bc3d 270a c9bd b1b3 44bd
000003b0: 122a 603e f948 fc3d 4bd5 1c3d 55b6 0a3e
000003c0: 2967 8c3d 97f6 d73d 0058 a13d 8276 bf3d
000003d0: f9f4 dc3d 6dbb 493b 4f86 703d c61b bfbe
000003e0: 0733 13be 66a0 04bc d9a0 dfbe b150 3abe
000003f0: 1331 2fbd 92ee 79be d49b debe a34b 3bbd

conv_block_2.3.bias f4 [10]
1.7116935 -0.42116037 0.124878414 0.86852014 0.47821087 -0.32546726 2.0753348 0.9129704
1.3990109 1.6236763
00000000: c618 db3f 55a2 d7be 41c0 ff3d 5657 5e3f
00000010: 0ed8 f43e a5a3 a6be 49d2 0440 6eb8 693f
00000020: ca12 b33f a0d4 cf3f

classifier.1.weight f4 [490, 490]
0.017969217 -0.083767585 -0.09738057 0.02883599 0.05610103 -0.006413362 -0.037790824 -0.061595745
-0.13512237 -0.0025878816 0.0723338 -0.077293076 0.03186885 -0.03829271 -0.004818817 -0.062441107
0.07947551 0.07381503 -0.08215432 0.037228703 -0.25189862 0.10364283 -0.036273815 0.11464318
-0.06055715 -0.06605076 0.08171614 -0.28756937 -0.0026120723 0.0043466957 -0.01714023 -0.11350418
-0.06410886 0.12673177 -0.07142471 0.09359514 0.040895514 -0.11998835 -0.013288162 -0.020415524
-0.022384763 0.097099006 0.04980474 0.0022533417 -0.024536598 0.034179106 -0.01460218 -0.040635288
-0.021574363 0.015859805 -0.077139206 0.0009912512 -0.04829614 -0.056185417 -0.117112786 0.006695281
-0.0044729705 -0.06341212 -0.02093142 0.007982414 -0.052830145 0.094552785 0.037149373 -0.0025550686
-0.009290001 0.10764686 0.023799691 0.019585017 0.079508 -0.006326772 -0.0565021 0.0139514785
0.093811564 0.055250898 0.06232037 -0.075996146 0.05687385 0.0028668484 -0.045616813 -0.018125923
0.005204885 0.06036653 -0.08889991 -0.024088068 -0.039800826 0.04903253 -0.06449439 0.07109286
0.07905951 0.036063284 -0.05541273 0.025667524 0.043319326 -0.05238979 -0.031337194 -0.06582652
-0.009050667 0.030404372 0.028994031 -0.027495861 -0.0446611 -0.11558883 0.012616224 -0.009458563
0.01950086 0.019272108 0.05559729 -0.01744519 -0.12951624 -0.018224893 0.08497881 0.051786203
-0.04108923 0.039489456 0.013829585 0.03953101 -0.024577029 0.07816119 -0.009124754 0.011225978
0.00402974 -0.029689245 0.06451427 0.048497863 0.060151324 0.039594255 0.110466614 0.0059599555
-0.006027788 -0.060643677 -0.07194487 -0.100392304 0.0145122325 -0.015552933 0.027727466 0.00812474
-0.07338443 -0.06438241 -0.020141454 -0.07280439 0.08634006 -0.032753613 0.026638042 -0.13257083
-0.08408588 0.08118532 0.07535389 -0.038985822 0.01083486 -0.16151007 0.04835446 0.0048401426
-0.017051576 -0.009250738 -0.124025494 0.025337987 -0.023361955 -0.019500708 0.063993596 -0.07657411
-0.13280416 -0.017890872 0.08376525 -0.03497493 0.046205994 -0.02147851 -0.1730202 0.026842775
0.00959067 0.10628946 0.010720465 -0.07933117 -0.044125665 -0.15656863 -0.0030408362 0.050546467
-0.039620336 -0.07722874 -0.12313585 -0.09364432 -0.12816271 -0.032520603 0.07718828 -0.03900553
-0.19185339 -0.09297246 -0.10860931 0.108975515 -0.064810894 -0.01305584 -0.07982787 -0.18778566
0.028607378 -0.11058958 0.0636681 0.04057364 0.01593918 -0.05250884 -0.11240464 -0.06162869
-0.12806138 0.10731128 -0.022597292 -0.028322134 -0.02461821 -0.11433281 0.105438605 -0.058472816
-0.046643995 -0.08549514 -0.019864272 0.005040844 -0.00017844193 0.047115985 -0.18691 -0.057967238
0.055901237 0.0098911 -0.06282737 0.04960885 0.115692094 -0.06504354 0.054666117 0.029298108
-0.0338414 0.013771364 0.014078343 -0.023562962 -0.027223684 -0.04485467 -0.010768426 0.047115684
-0.02067484 -0.053417675 -0.0892969 -0.014870915 -0.025234183 0.04535995 0.03787631 -0.04813426
-0.011793149 -0.024936724 -0.030913364 -0.030667575 -0.07251379 -0.06946067 -0.08797438 -0.09178886
-0.043481357 -0.16064346 0.099895224 -0.06574609 0.008609391 -0.03662042 -0.0800884 0.10589013
00000000: 2e34 933c 578e abbd 776f c7bd 7439 ec3c
00000010: 32ca 653d 2e27 d2bb 8dca 1abd d24b 7cbd
00000020: 855d 0abe 7399 29bb be23 943d d54b 9ebd
00000030: e988 023d d1d8 1cbd 2be7 9dbb 3fc2 7fbd
00000040: 0ec4 a23d 562c 973d 8640 a8bd 207d 183d
00000050: dbf8 80be b142 d43d da93 14bd 0bca ea3d
00000060: c60a 78bd 9f45 87bd cb5a a73d 4b3c 93be
00000070: 4d2f 2bbb ba6e 8e3b ab69 8cbc e174 e8bd
00000080: 824b 83bd f9c5 013e 1e47 92bd cfae bf3d
00000090: 0e82 273d 74bc f5bd 97b6 59bc 753e a7bc
000000a0: 4060 b7bc d8db c63d 0e00 4c3d cdac 133b
000000b0: fa00 c9bc 64ff 0b3d fb3d 6fbc 3071 26bd
000000c0: b8bc b0bc 6cec 813c 29fb 9dbd dfec 813a
000000d0: 2cd2 45bd ae22 66bd d4d8 efbd 1664 db3b
000000e0: ff91 92bb 37de 81bd 5f78 abbc acc8 023c
000000f0: 6c64 58bd e4a4 c13d f129 183d f072 27bb
00000100: 1735 18bc f575 dc3d 92f7 c23c c270 a03c
00000110: 17d5 a23d cf50 cfbb bf6e 67bd be94 643c
00000120: 4720 c03d c44e 623d a543 7f3d dea3 9bbd
00000130: 8ef4 683d bce1 3b3b b2d8 3abd d17c 94bc
00000140: bd8d aa3b e542 773d 2811 b6bd 5754 c5bc
00000150: 3106 23bd 56d6 483d a215 84bd 2299 913d
00000160: f4e9 a13d 18b7 133d 75f8 62bd b344 d23c
00000170: 9b6f 313d ad96 56bd 6e5b 00bd 0ed0 86bd
00000180: 4049 14bc 9712 f93c e484 ed3c 003f e1bc
00000190: 8fee 36bd d6b9 ecbd 47b4 4e3c 17f8 1abc
000001a0: 44c0 9f3c 8ae0 9d3c fcb9 633d 37e9 8ebc
000001b0: e89f 04be 5f4c 95bc 5f09 ae3d c51d 543d
000001c0: 2e4d 28bd b2bf 213d 7c95 623c 45eb 213d
000001d0: c455 c9bc f912 a03d fe7f 15bc 2aed 373c
000001e0: e90b 843b dc36 f3bc 0f20 843d b2a5 463d
000001f0: 3c61 763d 962d 223d 523c e23d bb4b c33b
00000200: c084 c5bb 8165 78bd d557 93bd 7b9a cdbd
00000210: b7c4 6d3c bbd1 7ebc b624 e33c a11d 053c
00000220: 934a 96bd edda 83bd b1ff a4bc 781a 95bd
00000230: 0fd3 b03d a728 06bd 0638 da3c a6c0 07be
00000240: 3835 acbd 7d44 a63d 2453 9a3d 99af 1fbd
00000250: b284 313c e562 25be 540f 463d 0f9a 9e3b
00000260: bfaf 8bbc 6890 17bc 1401 febd 9c91 cf3c
00000270: 9261 bfbc f3bf 9fbc 130f 833d e3d2 9cbd
00000280: d0fd 07be e18f 92bc 1e8d ab3d df41 0fbd
00000290: 7f42 3d3d b3f3 afbc 352c 31be 61e5 db3c
000002a0: 2f22 1d3c 4aae d93d e4a4 2f3c 6178 a2bd
000002b0: 1dbd 34bd 8753 20be c448 47bb d009 4f3d
000002c0: ef48 22bd 1a2a 9ebd a62e fcbd 98c8 bfbd
000002d0: 163d 03be 5334 05bd e414 9e3d 43c4 1fbd
000002e0: 3775 44be 5868 bebd 8f6e debd 8e2e df3d
000002f0: 93bb 84bd 29e8 55bc cb7c a3bd e24a 40be
00000300: 055a ea3c ca7c e2bd 6c64 823d 8c30 263d
00000310: e292 823c 8213 57bd 6734 e6bd 5e6e 7cbd
00000320: 8622 03be 04c6 db3d f51d b9bc d203 e8bc
00000330: 21ac c9bc 5227 eabd 32f0 d73d 3181 6fbd
00000340: c60d 3fbd 1318 afbd 66ba a2bc aa2d a53b
00000350: 241c 3bb9 b1fc 403d 5665 3fbe 0e6f 6dbd
00000360: b2f8 643d 480e 223c a3ab 80bd a632 4b3d
00000370: faef ec3d 8c35 85bd 94e9 5f3d 9602 f03c
00000380: 489d 0abd 4aa1 613c daa8 663c 1d07 c1bc
00000390: 3404 dfbc 88b9 37bd 0d6e 30bc 60fc 403d
000003a0: 485e a9bc 7ecc 5abd 4be1 b6bd 23a5 73bc
000003b0: ebb7 cebc 5bcb 393d 3124 1b3d 6e28 45bd
000003c0: 0d38 41bc 1a48 ccbc 063e fdbc 913a fbbc
000003d0: 1c82 94bd 6541 8ebd e92b b4bd ccfb bbbd
000003e0: 8219 32bd b87f 24be de95 cc3d e3a5 86bd
000003f0: 670e 0d3c 4bff 15bd 6305 a4bd eddc d83d

classifier.1.bias f4 [490]
-0.05407408 -0.027876584 0.050474796 -0.05817516 -0.0655699 0.029900022 0.08063242 0.04227893
-0.06373869 0.011979395 0.074488506 -0.103837505 -0.022962712 0.0016098119 -0.060277026 0.03436703
0.08897575 0.019232035 -0.014973046 -0.0108131105 0.050578 -0.041821267 0.02548222 -0.000671403
0.03502265 -0.034390748 0.024422932 0.01885886 -0.031246817 0.019513527 -0.056131557 0.10307237
-0.020288128 -0.05575262 0.08381837 -0.035060983 -0.031447813 -0.065651275 -0.006890452 -0.053682487
0.060930707 -0.026129061 0.0107290605 0.050270163 -0.08444581 0.005018597 0.11215405 0.05371902
-0.035191655 0.026837468 0.0044410992 -0.02294529 0.004024475 -0.104790404 0.013308818 0.036043655
0.01278323 0.06471292 0.1058555 -0.028422765 0.0075839367 0.025088692 -0.032167517 0.031276997
-0.023566902 0.10849181 0.009931687 -0.016923288 -0.11445242 0.02892908 0.0072651603 -0.05942541
0.06457186 0.12974733 -0.045725532 0.063939705 0.045974504 -0.06401458 -0.032585766 -0.01637422
-0.09075604 -0.016103946 -0.038604926 0.009658461 -0.06367422 0.039468754 0.016925314 -0.023551907
0.095460735 0.014256752 0.0041916985 0.020930381 -0.028455516 0.05215582 0.0021970572 0.044866316
0.08888046 0.023652265 0.088251226 0.040760826 0.0058153085 0.06591132 -0.027592864 -0.04815117
0.015685063 0.03209066 0.07407855 -0.0019839497 0.051030226 -0.043348826 0.044493563 -0.019463237
-0.011204804 -0.01802102 0.019435521 -0.029453985 -0.005114166 0.045562714 -0.0718664 4.3007203e-05
0.0099902805 0.02280604 -0.02609231 0.05362045 0.024077801 0.07906511 0.04297538 0.027504057
0.0360648 -0.031385887 0.016008377 0.025036976 0.04519532 0.00766264 -0.058943428 0.039644167
0.010829565 0.02937381 -0.07666015 -0.07550422 0.09990451 0.018512862 -0.02627953 -0.0064624227
0.06367937 -0.019484317 0.033390913 -0.078947484 0.12644163 0.11674218 0.019441167 -0.0018024339
0.034805328 0.013231296 -0.028047087 0.01576562 0.1003501 -0.060136747 -0.019263845 0.014636323
0.03828911 0.060204934 -0.005462011 -0.11264207 0.08879243 0.18139105 -0.06659589 0.0034277544
-0.056637734 0.1303702 -0.017302537 0.10327292 0.001900081 0.03589266 -0.047397632 -0.07848117
-0.011214806 -0.06306057 0.020222053 0.039766256 0.05070873 0.018894361 -0.049733467 -0.026990168
-0.009196715 0.1031357 -0.0071104527 0.03575244 -0.052174803 -0.008581984 0.06796645 0.05771999
0.085075684 0.07656027 0.07035012 -0.04532879 0.0009684604 -0.009259497 0.056934703 0.008463673
0.093162805 0.014454333 0.00678513 -0.0031486074 0.015477393 0.10319839 0.08282955 0.080507904
-0.029655477 0.02703527 0.003524138 -0.019548044 -0.07988446 -0.057260644 -0.0014170706 0.18036762
-0.010306384 -0.077042416 0.013121501 -0.010211077 -0.038988207 0.23256539 -0.03761404 -0.013654608
0.023483666 -0.045300532 -0.09096267 -0.0407829 -0.09559966 0.04912358 -0.07543153 0.020832451
0.004554789 -0.004010054 0.10292848 -0.08107905 0.08839595 -0.030178852 0.047821164 -0.0040456457
0.09885149 0.029509706 0.015350425 -0.036533836 -0.06151703 0.036372848 0.058029186 0.03592681
0.10951009 0.010462174 0.042147 0.018710723 -0.0024396018 -0.012403191 -0.105677925 0.060997214
00000000: c87c 5dbd 6f5d e4bc a9be 4e3d 1449 6ebd
00000010: 8349 86bd e4f0 f43c 9c22 a53d ac2c 2d3d
00000020: 6e89 82bd 3945 443c 6e8d 983d c2a8 d4bd
00000030: 4c1c bcbc 5300 d33a 0be5 76bd 71c4 0c3d
00000040: eb38 b63d 808c 9d3c 8251 75bc 7929 31bc
00000050: e02a 4f3d c74c 2bbd 17c0 d03c 1801 30ba
00000060: e973 0f3d 50dd 0cbd 9a12 c83c e57d 9a3c
00000070: 53f9 ffbc d5da 9f3c 34ea 65bd 9b17 d33d
00000080: 4a33 a6bc dc5c 64bd f7a8 ab3d 1b9c 0fbd
00000090: 6ccf 00bd 2d74 86bd 4dc9 e1bb 2be2 5bbd
000000a0: 7a92 793d 9d0c d6bc f1c8 2f3c 16e8 4d3d
000000b0: edf1 acbd 0b73 a43b 06b1 e53d 7a08 5c3d
000000c0: 2025 10bd 40da db3c a486 913b c3f7 bbbc
000000d0: bedf 833b 5a9c d6bd 3b0d 5a3c 83a2 133d
000000e0: c170 513c 3588 843d c5ca d83d dcd6 e8bc
000000f0: ac82 f83b cd86 cd3c 16c2 03bd 4f1c 003d
00000100: 600f c1bc f430 de3d 84b8 223c b5a2 8abc
00000110: 0866 eabd aefc ec3c 9510 ee3b 0f68 73bd
00000120: 403e 843d 7cdc 043e b24a 3bbd d2f2 823d
00000130: c34f 3c3d 131a 83bd a778 05bd 3a23 86bc
00000140: 4dde b9bd 6cec 83bc 3320 1ebd 863e 1e3c
00000150: a167 82bd fda9 213d f5a6 8a3c eeef c0bc
00000160: eb80 c33d 2795 693c 845a 893b 3176 ab3c
00000170: 8b1b e9bc 57a1 553d 81fc 0f3b bec5 373d
00000180: f506 b63d 65c2 c13c 0fbd b43d d3f4 263d
00000190: 588e be3b 84fc 863d 6e0a e2bc 293a 45bd
000001a0: f67d 803c 7f71 033d 7fb6 973d 2705 02bb
000001b0: 1205 513d 8a8e 31bd e23e 363d 5e71 9fbc
000001c0: 5b94 37bc d1a0 93bc 3e37 9f3c 7c49 f1bc
000001d0: bc94 a7bb f89f 3a3d b12e 93bd a262 3438
000001e0: 46ae 233c bbd3 ba3c 8abf d5bc 1ea1 5b3d
000001f0: cf3e c53c e3ec a13d f406 303d 3050 e13c
00000200: afb8 133d 7d8e 00bd 0024 833c 581a cd3c
00000210: ba1e 393d e216 fb3b aa6e 71bd ec61 223d
00000220: 7d6e 313c 58a1 f03c ffff 9cbd f5a1 9abd
00000230: bc9a cc3d 49a8 973c 2b48 d7bc bbc2 d3bb
00000240: 546a 823d 939d 9fbc e9c4 083d 38af a1bd
00000250: ea79 013e 8616 ef3d 1543 9f3c a53f ecba
00000260: 0890 0e3d 14c8 583c 01c3 e5bc e726 813c
00000270: 5a84 cd3d f351 76bd 36cf 9dbc 30cd 6f3c
00000280: 0bd5 1c3d 7399 763d abfa b2bb e3b0 e6bd
00000290: ced8 b53d 93be 393e 6d63 88bd 2da4 603b
000002a0: f8fc 67bd c47f 053e 0dbe 8dbc c180 d33d
000002b0: 240c f93a 2f04 133d 0524 42bd bcba a0bd
000002c0: 4ebe 37bc e625 81bd b8a8 a53c f1e1 223d
000002d0: f5b3 4f3d 59c8 9a3c 52b5 4bbd 7c1a ddbc
000002e0: d2ad 16bc cf38 d33d cdfe e8bb 2771 123d
000002f0: 3fb5 55bd 739b 0cbc fe31 8b3d cc6b 6c3d
00000300: 293c ae3d a1cb 9c3d b913 903d aeaa 39bd
00000310: 47e0 7d3a 25b5 17bc 5d34 693d 38ab 0a3c
00000320: 24cc be3d ded1 6c3c cc55 de3b de58 4ebb
00000330: e494 7d3c ad59 d33d 8aa2 a93d 54e1 a43d
00000340: 0bf0 f2bc 1279 dd3c 39f5 663b 3823 a0bc
00000350: 779a a3bd 238a 6abd 00bd b9ba 4ab2 383e
00000360: 1cdc 28bc 6ac8 9dbd 90fb 563c 5c4c 27bc
00000370: 19b2 1fbd 9f25 6e3e 2e11 1abd 94b7 5fbc
00000380: d160 c03c 0d8d 39bd a34a babd f80b 27bd
00000390: c1c9 c3bd cf35 493d d97b 9abd d1a8 aa3c
000003a0: 5740 953b c566 83bb 2bcc d23d c60c a6bd
000003b0: f008 b53d a439 f7bc 20e0 433d 5691 84bb
000003c0: a672 ca3d 57be f13c 5980 7b3c 81a4 15bd
000003d0: 48f9 7bbd b2fb 143d 03b0 6d3d fe27 133d
000003e0: d346 e03d 8a69 2b3c 55a2 2c3d 3b47 993c
000003f0: bae1 1fbb c136 4bbc ab6d d8bd 37d8 793d

classifier.4.weight f4 [10, 490]
-0.023287823 -0.15432167 0.018660504 -0.07843968 0.031037726 -0.045951143 0.29806277 -0.08679406
-0.07197166 -0.005866203 0.14381932 -0.0005615136 0.37165737 -0.15956807 -0.07929206 0.28096572
0.1911806 -0.3498815 -0.007814797 0.036592714 -0.262717 0.23934484 0.23324797 0.46230567
0.26043445 0.17275295 0.3397473 -0.16167586 -0.1114506 -0.11054589 -0.17035252 0.25256437
-0.11098724 0.15218206 0.084517635 0.021459263 -0.07484435 -0.18010993 -0.13699432 -0.011904459
-0.14650083 -0.021241788 -0.19711359 -0.09764384 0.16007656 -0.019048687 0.3743652 0.42565048
0.27801597 0.120384485 0.08734059 0.19087687 0.26838738 -0.23692824 0.14666097 -0.18837403
-0.35056892 0.16886503 0.01912244 -0.15042536 0.15372792 -0.055816445 0.18011056 0.26695687
-0.035586547 -0.04701324 0.20025383 -0.07728642 -0.047347825 -0.14684597 -0.21300459 0.22904527
0.23410653 0.1998991 0.15338115 0.2026662 0.2984868 -0.024762694 0.23932807 0.11618606
-0.16314203 0.24911818 0.3699116 0.18845724 -0.08974986 -0.3741821 0.15947156 -0.06719418
0.07312657 0.025189772 -0.0037500868 0.1160615 0.11680704 0.20181444 -0.0066702673 -0.050860044
-0.107065044 0.24422166 0.11863393 0.34725118 0.10673834 0.22930123 -0.045986343 0.23789394
-0.23889646 -0.051242463 0.1793776 -0.064998366 0.38918254 -0.027343852 -0.13515364 0.04983504
0.02455759 0.07172078 -0.33680108 0.032443665 0.19966638 -0.030837428 0.078676336 0.2728
-0.04289806 0.118964806 -0.012760407 0.19197026 -0.018711954 0.15783027 0.00719738 -0.02143063
0.32547218 0.1762455 -0.11059964 -0.21532857 -0.14143991 -0.022401491 0.34594095 0.2710112
-0.04259581 -0.13478698 -0.1299019 0.10368073 0.28126332 0.11484327 -0.18982546 -0.41002452
-0.051849145 0.23670338 -0.05087153 0.074013226 0.237829 0.15790184 0.15257347 -0.032823723
-0.2540842 0.2055243 0.1282957 -0.35447758 0.15829444 -0.52034366 0.1816328 -0.16118656
0.18417785 0.15393245 -0.19299075 0.21439599 0.10420385 0.14911209 -0.07765084 -0.050985076
0.020783687 0.5081183 0.19905667 0.15793227 0.21455887 0.008981638 0.118863896 0.03369733
0.15552688 -0.06310425 0.32286566 -0.31400475 0.19049272 0.06805448 -0.0696125 0.14333944
0.25287226 0.053528048 0.2503396 0.046844 -0.23753463 -0.19100188 0.030602116 0.20202985
0.039075375 0.13852648 0.18905 -0.16102034 0.03737424 0.15321115 0.22946057 -0.062977776
-0.04180195 0.10929667 -0.014425507 -0.2511878 -0.17605516 -0.112872414 -0.019571839 -0.27533922
0.17309436 -0.11817618 -0.27647066 -0.07718805 0.013365443 0.24828267 -0.17799565 0.22328769
-0.0926376 0.2881833 -0.13751797 0.14829262 -0.101095006 0.17587322 -0.034491662 -0.015184758
0.23471609 -0.0670966 -0.23492426 -0.15407006 0.03827577 -0.063531324 -0.3112641 0.052048508
0.17075282 0.38570982 0.271728 0.19259259 0.09644753 0.040550463 0.012843171 -0.24330038
0.15729667 0.20728831 0.22300965 -0.24419174 -0.18053868 0.24642205 -0.21286617 0.17585465
-0.02910276 -0.331035 -0.17738836 0.086453415 0.0631412 -0.10815386 -0.20077002 -0.080227084
00000000: 1bc6 bebc 8006 1ebe eadd 983c fca4 a0bd
00000010: d442 fe3c 4437 3cbd af9b 983e 16c1 b1bd
00000020: e165 93bd 4739 c0bb 5f45 133e 8a32 13ba
00000030: e049 be3e d065 23be e063 a2bd bdda 8f3e
00000040: d9c4 433e ab23 b3be a209 00bc 3ee2 153d
00000050: d882 86be d016 753e 8ed8 6e3e 54b3 ec3e
00000060: aa57 853e 26e6 303e 5cf3 ad3e 5b8e 25be
00000070: 3640 e4bd e265 e2bd e470 2ebe 1e50 813e
00000080: 474d e3bd 9dd5 1b3e 9517 ad3d 56cb af3c
00000090: ff47 99bd bd6e 38be 3d48 0cbe ec0a 43bc
000000a0: 5004 16be 4203 aebc 25d8 49be 7ef9 c7bd
000000b0: 1ceb 233e fe0b 9cbc ccac bf3e dcee d93e
000000c0: 1c58 8e3e 248c f63d a0df b23d 3a75 433e
000000d0: 126a 893e 519d 72be 4b2e 163e 1fe5 40be
000000e0: c57d b3be f4ea 2c3e aaa6 9c3c 1b09 1abe
000000f0: da6a 1d3e c99f 64bd e76e 383e 92ae 883e
00000100: 33c3 11bd f590 40bd 570f 4d3e 5848 9ebd
00000110: cbef 41bd ca5e 16be e01d 5abe d88a 6a3e
00000120: 9fb9 6f3e 5ab2 4c3e f30f 1d3e ba87 4f3e
00000130: 43d3 983e 22db cabc 6b12 753e f5f2 ed3d
00000140: b40e 27be d618 7f3e 0e65 bd3e effa 403e
00000150: c6ce b7bd cc94 bfbe 834c 233e 1a9d 89bd
00000160: 62c3 953d c85a ce3c 04c4 75bb a7b1 ed3d
00000170: 8838 ef3d 72a8 4e3e 4292 dabb 9f52 50bd
00000180: eb44 dbbd 3e15 7a3e 59f6 f23d e8ca b13e
00000190: a199 da3d f1cd 6a3e 2d5c 3cbd 789a 733e
000001a0: 46a1 74be 9ee3 51bd c3ae 373e dd1d 85bd
000001b0: ef42 c73e 3700 e0bc b765 0abe d41f 4c3d
000001c0: 002d c93c 58e2 923d 3171 acbe a6e3 043d
000001d0: 5875 4c3e c69e fcbc 0f21 a13d 71ac 8b3e
000001e0: e0b5 2fbd d2a3 f33d 0711 51bc da93 443e
000001f0: d049 99bc 429e 213e 00d8 eb3b 4a8f afbc
00000200: 4aa4 a63e b379 343e 1082 e2bd 187f 5cbe
00000210: a0d5 10be 5583 b7bc 2c1f b13e fbc1 8a3e
00000220: f278 2ebd 9905 0abe 0105 05be 9056 d43d
00000230: bf01 903e f332 eb3d 9b61 42be bcee d1be
00000240: c55f 54bd 5f62 723e aa5e 50bd 3f94 973d
00000250: 7289 733e 05b1 213e 383c 1c3e 2b72 06bd
00000260: 5317 82be f674 523e f35f 033e 167e b5be
00000270: f017 223e 3e35 05bf f3fd 393e 170e 25be
00000280: 1e99 3c3e 78a0 1d3e 5e9f 45be 9f8a 5b3e
00000290: d468 d53d d7b0 183e 6707 9fbd bad5 50bd
000002a0: 8d42 aa3c 0a14 023f 83d5 4b3e ffb8 213e
000002b0: 52b5 5b3e b827 133c ea6e f33d 3606 0a3d
000002c0: 7042 1f3e cd3c 81bd a64e a53e 3bc5 a0be
000002d0: 8610 433e 2660 8b3d 0091 8ebd 93c7 123e
000002e0: 7978 813e 3a40 5b3d 832c 803e 7fdf 3f3d
000002f0: 473c 73be ff95 43be 4ab1 fa3c eae0 4e3e
00000300: 800d 203d e3d9 0d3e 5396 413e 84e2 24be
00000310: bb15 193d 62e3 1c3e b6f7 6a3e 7efa 80bd
00000320: 8638 2bbd efd6 df3d f658 6cbc b09b 80be
00000330: ce47 34be a729 e7bd 1f55 a0bc 43f9 8cbe
00000340: a63f 313e 5a06 f2bd 908d 8dbe c514 9ebd
00000350: bbfa 5a3c d03d 7e3e 7e44 36be 87a5 643e
00000360: c8b8 bdbd c38c 933e 83d1 0cbe 05da 173e
00000370: e60a cfbd 1c18 343e 2147 0dbd 7ec9 78bc
00000380: 6a59 703e f169 89bd fc8f 70be 8bc4 1dbe
00000390: 0ec7 1c3d b61c 82bd 025e 9fbe d130 553d
000003a0: d4d9 2e3e c27b c53e ef1f 8b3e fe36 453e
000003b0: 4886 c53d 3e18 263d 2a6c 523c bc23 79be
000003c0: 6112 213e 6343 543e a45c 643e 660d 7abe
000003d0: 22df 38be 1056 7c3e 97f9 59be 3e13 343e
000003e0: e968 eebc 6b7d a9be 4ba5 35be 7d0e b13d
000003f0: 2c50 813d c57f ddbd a896 4dbe 194e a4bd

classifier.4.bias f4 [10]
0.10203911 -1.1536794 0.37721628 0.8253329 0.67172086 -0.6918053 0.620333 -0.045829304
0.11513349 -0.9321332
00000000: e2f9 d03d c4ab 93bf 7e22 c13e 0449 533f
00000010: e6f5 2b3f 271a 31bf 25ce 1e3f 82b7 3bbd
00000020: 1bcb eb3d 48a0 6ebf
